node {
  name: "input_1"
  op: "Placeholder"
  attr {
    key: "dtype"
    value {
      type: DT_FLOAT
    }
  }
  attr {
    key: "shape"
    value {
      shape {
        dim {
          size: -1
        }
        dim {
          size: -1
        }
        dim {
          size: -1
        }
        dim {
          size: 3
        }
      }
    }
  }
}
node {
  name: "conv_0/random_uniform/shape"
  op: "Const"
  attr {
    key: "dtype"
    value {
      type: DT_INT32
    }
  }
  attr {
    key: "value"
    value {
      tensor {
        dtype: DT_INT32
        tensor_shape {
          dim {
            size: 4
          }
        }
        tensor_content: "\003\000\000\000\003\000\000\000\003\000\000\000 \000\000\000"
      }
    }
  }
}
node {
  name: "conv_0/random_uniform/min"
  op: "Const"
  attr {
    key: "dtype"
    value {
      type: DT_FLOAT
    }
  }
  attr {
    key: "value"
    value {
      tensor {
        dtype: DT_FLOAT
        tensor_shape {
        }
        float_val: -0.1380131095647812
      }
    }
  }
}
node {
  name: "conv_0/random_uniform/max"
  op: "Const"
  attr {
    key: "dtype"
    value {
      type: DT_FLOAT
    }
  }
  attr {
    key: "value"
    value {
      tensor {
        dtype: DT_FLOAT
        tensor_shape {
        }
        float_val: 0.1380131095647812
      }
    }
  }
}
node {
  name: "conv_0/random_uniform/RandomUniform"
  op: "RandomUniform"
  input: "conv_0/random_uniform/shape"
  attr {
    key: "T"
    value {
      type: DT_INT32
    }
  }
  attr {
    key: "dtype"
    value {
      type: DT_FLOAT
    }
  }
  attr {
    key: "seed"
    value {
      i: 87654321
    }
  }
  attr {
    key: "seed2"
    value {
      i: 2567603
    }
  }
}
node {
  name: "conv_0/random_uniform/sub"
  op: "Sub"
  input: "conv_0/random_uniform/max"
  input: "conv_0/random_uniform/min"
  attr {
    key: "T"
    value {
      type: DT_FLOAT
    }
  }
}
node {
  name: "conv_0/random_uniform/mul"
  op: "Mul"
  input: "conv_0/random_uniform/RandomUniform"
  input: "conv_0/random_uniform/sub"
  attr {
    key: "T"
    value {
      type: DT_FLOAT
    }
  }
}
node {
  name: "conv_0/random_uniform"
  op: "Add"
  input: "conv_0/random_uniform/mul"
  input: "conv_0/random_uniform/min"
  attr {
    key: "T"
    value {
      type: DT_FLOAT
    }
  }
}
node {
  name: "conv_0/kernel"
  op: "VarHandleOp"
  attr {
    key: "_class"
    value {
      list {
        s: "loc:@conv_0/kernel"
      }
    }
  }
  attr {
    key: "container"
    value {
      s: ""
    }
  }
  attr {
    key: "dtype"
    value {
      type: DT_FLOAT
    }
  }
  attr {
    key: "shape"
    value {
      shape {
        dim {
          size: 3
        }
        dim {
          size: 3
        }
        dim {
          size: 3
        }
        dim {
          size: 32
        }
      }
    }
  }
  attr {
    key: "shared_name"
    value {
      s: "conv_0/kernel"
    }
  }
}
node {
  name: "conv_0/kernel/IsInitialized/VarIsInitializedOp"
  op: "VarIsInitializedOp"
  input: "conv_0/kernel"
}
node {
  name: "conv_0/kernel/Assign"
  op: "AssignVariableOp"
  input: "conv_0/kernel"
  input: "conv_0/random_uniform"
  attr {
    key: "dtype"
    value {
      type: DT_FLOAT
    }
  }
}
node {
  name: "conv_0/kernel/Read/ReadVariableOp"
  op: "ReadVariableOp"
  input: "conv_0/kernel"
  attr {
    key: "dtype"
    value {
      type: DT_FLOAT
    }
  }
}
node {
  name: "conv_0/convolution/ReadVariableOp"
  op: "ReadVariableOp"
  input: "conv_0/kernel"
  attr {
    key: "dtype"
    value {
      type: DT_FLOAT
    }
  }
}
node {
  name: "conv_0/convolution"
  op: "Conv2D"
  input: "input_1"
  input: "conv_0/convolution/ReadVariableOp"
  attr {
    key: "T"
    value {
      type: DT_FLOAT
    }
  }
  attr {
    key: "data_format"
    value {
      s: "NHWC"
    }
  }
  attr {
    key: "dilations"
    value {
      list {
        i: 1
        i: 1
        i: 1
        i: 1
      }
    }
  }
  attr {
    key: "explicit_paddings"
    value {
      list {
      }
    }
  }
  attr {
    key: "padding"
    value {
      s: "SAME"
    }
  }
  attr {
    key: "strides"
    value {
      list {
        i: 1
        i: 1
        i: 1
        i: 1
      }
    }
  }
  attr {
    key: "use_cudnn_on_gpu"
    value {
      b: true
    }
  }
}
node {
  name: "bnorm_0/Const"
  op: "Const"
  attr {
    key: "dtype"
    value {
      type: DT_FLOAT
    }
  }
  attr {
    key: "value"
    value {
      tensor {
        dtype: DT_FLOAT
        tensor_shape {
          dim {
            size: 32
          }
        }
        float_val: 1.0
      }
    }
  }
}
node {
  name: "bnorm_0/gamma"
  op: "VarHandleOp"
  attr {
    key: "_class"
    value {
      list {
        s: "loc:@bnorm_0/gamma"
      }
    }
  }
  attr {
    key: "container"
    value {
      s: ""
    }
  }
  attr {
    key: "dtype"
    value {
      type: DT_FLOAT
    }
  }
  attr {
    key: "shape"
    value {
      shape {
        dim {
          size: 32
        }
      }
    }
  }
  attr {
    key: "shared_name"
    value {
      s: "bnorm_0/gamma"
    }
  }
}
node {
  name: "bnorm_0/gamma/IsInitialized/VarIsInitializedOp"
  op: "VarIsInitializedOp"
  input: "bnorm_0/gamma"
}
node {
  name: "bnorm_0/gamma/Assign"
  op: "AssignVariableOp"
  input: "bnorm_0/gamma"
  input: "bnorm_0/Const"
  attr {
    key: "dtype"
    value {
      type: DT_FLOAT
    }
  }
}
node {
  name: "bnorm_0/gamma/Read/ReadVariableOp"
  op: "ReadVariableOp"
  input: "bnorm_0/gamma"
  attr {
    key: "dtype"
    value {
      type: DT_FLOAT
    }
  }
}
node {
  name: "bnorm_0/Const_1"
  op: "Const"
  attr {
    key: "dtype"
    value {
      type: DT_FLOAT
    }
  }
  attr {
    key: "value"
    value {
      tensor {
        dtype: DT_FLOAT
        tensor_shape {
          dim {
            size: 32
          }
        }
        float_val: 0.0
      }
    }
  }
}
node {
  name: "bnorm_0/beta"
  op: "VarHandleOp"
  attr {
    key: "_class"
    value {
      list {
        s: "loc:@bnorm_0/beta"
      }
    }
  }
  attr {
    key: "container"
    value {
      s: ""
    }
  }
  attr {
    key: "dtype"
    value {
      type: DT_FLOAT
    }
  }
  attr {
    key: "shape"
    value {
      shape {
        dim {
          size: 32
        }
      }
    }
  }
  attr {
    key: "shared_name"
    value {
      s: "bnorm_0/beta"
    }
  }
}
node {
  name: "bnorm_0/beta/IsInitialized/VarIsInitializedOp"
  op: "VarIsInitializedOp"
  input: "bnorm_0/beta"
}
node {
  name: "bnorm_0/beta/Assign"
  op: "AssignVariableOp"
  input: "bnorm_0/beta"
  input: "bnorm_0/Const_1"
  attr {
    key: "dtype"
    value {
      type: DT_FLOAT
    }
  }
}
node {
  name: "bnorm_0/beta/Read/ReadVariableOp"
  op: "ReadVariableOp"
  input: "bnorm_0/beta"
  attr {
    key: "dtype"
    value {
      type: DT_FLOAT
    }
  }
}
node {
  name: "bnorm_0/Const_2"
  op: "Const"
  attr {
    key: "dtype"
    value {
      type: DT_FLOAT
    }
  }
  attr {
    key: "value"
    value {
      tensor {
        dtype: DT_FLOAT
        tensor_shape {
          dim {
            size: 32
          }
        }
        float_val: 0.0
      }
    }
  }
}
node {
  name: "bnorm_0/moving_mean"
  op: "VarHandleOp"
  attr {
    key: "_class"
    value {
      list {
        s: "loc:@bnorm_0/moving_mean"
      }
    }
  }
  attr {
    key: "container"
    value {
      s: ""
    }
  }
  attr {
    key: "dtype"
    value {
      type: DT_FLOAT
    }
  }
  attr {
    key: "shape"
    value {
      shape {
        dim {
          size: 32
        }
      }
    }
  }
  attr {
    key: "shared_name"
    value {
      s: "bnorm_0/moving_mean"
    }
  }
}
node {
  name: "bnorm_0/moving_mean/IsInitialized/VarIsInitializedOp"
  op: "VarIsInitializedOp"
  input: "bnorm_0/moving_mean"
}
node {
  name: "bnorm_0/moving_mean/Assign"
  op: "AssignVariableOp"
  input: "bnorm_0/moving_mean"
  input: "bnorm_0/Const_2"
  attr {
    key: "dtype"
    value {
      type: DT_FLOAT
    }
  }
}
node {
  name: "bnorm_0/moving_mean/Read/ReadVariableOp"
  op: "ReadVariableOp"
  input: "bnorm_0/moving_mean"
  attr {
    key: "dtype"
    value {
      type: DT_FLOAT
    }
  }
}
node {
  name: "bnorm_0/Const_3"
  op: "Const"
  attr {
    key: "dtype"
    value {
      type: DT_FLOAT
    }
  }
  attr {
    key: "value"
    value {
      tensor {
        dtype: DT_FLOAT
        tensor_shape {
          dim {
            size: 32
          }
        }
        float_val: 1.0
      }
    }
  }
}
node {
  name: "bnorm_0/moving_variance"
  op: "VarHandleOp"
  attr {
    key: "_class"
    value {
      list {
        s: "loc:@bnorm_0/moving_variance"
      }
    }
  }
  attr {
    key: "container"
    value {
      s: ""
    }
  }
  attr {
    key: "dtype"
    value {
      type: DT_FLOAT
    }
  }
  attr {
    key: "shape"
    value {
      shape {
        dim {
          size: 32
        }
      }
    }
  }
  attr {
    key: "shared_name"
    value {
      s: "bnorm_0/moving_variance"
    }
  }
}
node {
  name: "bnorm_0/moving_variance/IsInitialized/VarIsInitializedOp"
  op: "VarIsInitializedOp"
  input: "bnorm_0/moving_variance"
}
node {
  name: "bnorm_0/moving_variance/Assign"
  op: "AssignVariableOp"
  input: "bnorm_0/moving_variance"
  input: "bnorm_0/Const_3"
  attr {
    key: "dtype"
    value {
      type: DT_FLOAT
    }
  }
}
node {
  name: "bnorm_0/moving_variance/Read/ReadVariableOp"
  op: "ReadVariableOp"
  input: "bnorm_0/moving_variance"
  attr {
    key: "dtype"
    value {
      type: DT_FLOAT
    }
  }
}
node {
  name: "bnorm_0/VarIsInitializedOp"
  op: "VarIsInitializedOp"
  input: "conv_0/kernel"
}
node {
  name: "bnorm_0/VarIsInitializedOp_1"
  op: "VarIsInitializedOp"
  input: "bnorm_0/moving_mean"
}
node {
  name: "bnorm_0/VarIsInitializedOp_2"
  op: "VarIsInitializedOp"
  input: "bnorm_0/beta"
}
node {
  name: "bnorm_0/VarIsInitializedOp_3"
  op: "VarIsInitializedOp"
  input: "bnorm_0/moving_variance"
}
node {
  name: "bnorm_0/VarIsInitializedOp_4"
  op: "VarIsInitializedOp"
  input: "bnorm_0/gamma"
}
node {
  name: "bnorm_0/init"
  op: "NoOp"
  input: "^bnorm_0/beta/Assign"
  input: "^bnorm_0/gamma/Assign"
  input: "^bnorm_0/moving_mean/Assign"
  input: "^bnorm_0/moving_variance/Assign"
  input: "^conv_0/kernel/Assign"
}
node {
  name: "bnorm_0/ReadVariableOp"
  op: "ReadVariableOp"
  input: "bnorm_0/gamma"
  attr {
    key: "dtype"
    value {
      type: DT_FLOAT
    }
  }
}
node {
  name: "bnorm_0/ReadVariableOp_1"
  op: "ReadVariableOp"
  input: "bnorm_0/beta"
  attr {
    key: "dtype"
    value {
      type: DT_FLOAT
    }
  }
}
node {
  name: "bnorm_0/Const_4"
  op: "Const"
  attr {
    key: "dtype"
    value {
      type: DT_FLOAT
    }
  }
  attr {
    key: "value"
    value {
      tensor {
        dtype: DT_FLOAT
        tensor_shape {
          dim {
          }
        }
      }
    }
  }
}
node {
  name: "bnorm_0/Const_5"
  op: "Const"
  attr {
    key: "dtype"
    value {
      type: DT_FLOAT
    }
  }
  attr {
    key: "value"
    value {
      tensor {
        dtype: DT_FLOAT
        tensor_shape {
          dim {
          }
        }
      }
    }
  }
}
node {
  name: "bnorm_0/FusedBatchNormV3"
  op: "FusedBatchNormV3"
  input: "conv_0/convolution"
  input: "bnorm_0/ReadVariableOp"
  input: "bnorm_0/ReadVariableOp_1"
  input: "bnorm_0/Const_4"
  input: "bnorm_0/Const_5"
  attr {
    key: "T"
    value {
      type: DT_FLOAT
    }
  }
  attr {
    key: "U"
    value {
      type: DT_FLOAT
    }
  }
  attr {
    key: "data_format"
    value {
      s: "NHWC"
    }
  }
  attr {
    key: "epsilon"
    value {
      f: 0.0010000000474974513
    }
  }
  attr {
    key: "is_training"
    value {
      b: true
    }
  }
}
node {
  name: "bnorm_0/Shape"
  op: "Shape"
  input: "conv_0/convolution"
  attr {
    key: "T"
    value {
      type: DT_FLOAT
    }
  }
  attr {
    key: "out_type"
    value {
      type: DT_INT32
    }
  }
}
node {
  name: "bnorm_0/strided_slice/stack"
  op: "Const"
  attr {
    key: "dtype"
    value {
      type: DT_INT32
    }
  }
  attr {
    key: "value"
    value {
      tensor {
        dtype: DT_INT32
        tensor_shape {
          dim {
            size: 1
          }
        }
        int_val: 0
      }
    }
  }
}
node {
  name: "bnorm_0/strided_slice/stack_1"
  op: "Const"
  attr {
    key: "dtype"
    value {
      type: DT_INT32
    }
  }
  attr {
    key: "value"
    value {
      tensor {
        dtype: DT_INT32
        tensor_shape {
          dim {
            size: 1
          }
        }
        int_val: 1
      }
    }
  }
}
node {
  name: "bnorm_0/strided_slice/stack_2"
  op: "Const"
  attr {
    key: "dtype"
    value {
      type: DT_INT32
    }
  }
  attr {
    key: "value"
    value {
      tensor {
        dtype: DT_INT32
        tensor_shape {
          dim {
            size: 1
          }
        }
        int_val: 1
      }
    }
  }
}
node {
  name: "bnorm_0/strided_slice"
  op: "StridedSlice"
  input: "bnorm_0/Shape"
  input: "bnorm_0/strided_slice/stack"
  input: "bnorm_0/strided_slice/stack_1"
  input: "bnorm_0/strided_slice/stack_2"
  attr {
    key: "Index"
    value {
      type: DT_INT32
    }
  }
  attr {
    key: "T"
    value {
      type: DT_INT32
    }
  }
  attr {
    key: "begin_mask"
    value {
      i: 0
    }
  }
  attr {
    key: "ellipsis_mask"
    value {
      i: 0
    }
  }
  attr {
    key: "end_mask"
    value {
      i: 0
    }
  }
  attr {
    key: "new_axis_mask"
    value {
      i: 0
    }
  }
  attr {
    key: "shrink_axis_mask"
    value {
      i: 1
    }
  }
}
node {
  name: "bnorm_0/Shape_1"
  op: "Shape"
  input: "conv_0/convolution"
  attr {
    key: "T"
    value {
      type: DT_FLOAT
    }
  }
  attr {
    key: "out_type"
    value {
      type: DT_INT32
    }
  }
}
node {
  name: "bnorm_0/strided_slice_1/stack"
  op: "Const"
  attr {
    key: "dtype"
    value {
      type: DT_INT32
    }
  }
  attr {
    key: "value"
    value {
      tensor {
        dtype: DT_INT32
        tensor_shape {
          dim {
            size: 1
          }
        }
        int_val: 1
      }
    }
  }
}
node {
  name: "bnorm_0/strided_slice_1/stack_1"
  op: "Const"
  attr {
    key: "dtype"
    value {
      type: DT_INT32
    }
  }
  attr {
    key: "value"
    value {
      tensor {
        dtype: DT_INT32
        tensor_shape {
          dim {
            size: 1
          }
        }
        int_val: 2
      }
    }
  }
}
node {
  name: "bnorm_0/strided_slice_1/stack_2"
  op: "Const"
  attr {
    key: "dtype"
    value {
      type: DT_INT32
    }
  }
  attr {
    key: "value"
    value {
      tensor {
        dtype: DT_INT32
        tensor_shape {
          dim {
            size: 1
          }
        }
        int_val: 1
      }
    }
  }
}
node {
  name: "bnorm_0/strided_slice_1"
  op: "StridedSlice"
  input: "bnorm_0/Shape_1"
  input: "bnorm_0/strided_slice_1/stack"
  input: "bnorm_0/strided_slice_1/stack_1"
  input: "bnorm_0/strided_slice_1/stack_2"
  attr {
    key: "Index"
    value {
      type: DT_INT32
    }
  }
  attr {
    key: "T"
    value {
      type: DT_INT32
    }
  }
  attr {
    key: "begin_mask"
    value {
      i: 0
    }
  }
  attr {
    key: "ellipsis_mask"
    value {
      i: 0
    }
  }
  attr {
    key: "end_mask"
    value {
      i: 0
    }
  }
  attr {
    key: "new_axis_mask"
    value {
      i: 0
    }
  }
  attr {
    key: "shrink_axis_mask"
    value {
      i: 1
    }
  }
}
node {
  name: "bnorm_0/Shape_2"
  op: "Shape"
  input: "conv_0/convolution"
  attr {
    key: "T"
    value {
      type: DT_FLOAT
    }
  }
  attr {
    key: "out_type"
    value {
      type: DT_INT32
    }
  }
}
node {
  name: "bnorm_0/strided_slice_2/stack"
  op: "Const"
  attr {
    key: "dtype"
    value {
      type: DT_INT32
    }
  }
  attr {
    key: "value"
    value {
      tensor {
        dtype: DT_INT32
        tensor_shape {
          dim {
            size: 1
          }
        }
        int_val: 2
      }
    }
  }
}
node {
  name: "bnorm_0/strided_slice_2/stack_1"
  op: "Const"
  attr {
    key: "dtype"
    value {
      type: DT_INT32
    }
  }
  attr {
    key: "value"
    value {
      tensor {
        dtype: DT_INT32
        tensor_shape {
          dim {
            size: 1
          }
        }
        int_val: 3
      }
    }
  }
}
node {
  name: "bnorm_0/strided_slice_2/stack_2"
  op: "Const"
  attr {
    key: "dtype"
    value {
      type: DT_INT32
    }
  }
  attr {
    key: "value"
    value {
      tensor {
        dtype: DT_INT32
        tensor_shape {
          dim {
            size: 1
          }
        }
        int_val: 1
      }
    }
  }
}
node {
  name: "bnorm_0/strided_slice_2"
  op: "StridedSlice"
  input: "bnorm_0/Shape_2"
  input: "bnorm_0/strided_slice_2/stack"
  input: "bnorm_0/strided_slice_2/stack_1"
  input: "bnorm_0/strided_slice_2/stack_2"
  attr {
    key: "Index"
    value {
      type: DT_INT32
    }
  }
  attr {
    key: "T"
    value {
      type: DT_INT32
    }
  }
  attr {
    key: "begin_mask"
    value {
      i: 0
    }
  }
  attr {
    key: "ellipsis_mask"
    value {
      i: 0
    }
  }
  attr {
    key: "end_mask"
    value {
      i: 0
    }
  }
  attr {
    key: "new_axis_mask"
    value {
      i: 0
    }
  }
  attr {
    key: "shrink_axis_mask"
    value {
      i: 1
    }
  }
}
node {
  name: "bnorm_0/Rank/packed"
  op: "Pack"
  input: "bnorm_0/strided_slice"
  input: "bnorm_0/strided_slice_1"
  input: "bnorm_0/strided_slice_2"
  attr {
    key: "N"
    value {
      i: 3
    }
  }
  attr {
    key: "T"
    value {
      type: DT_INT32
    }
  }
  attr {
    key: "axis"
    value {
      i: 0
    }
  }
}
node {
  name: "bnorm_0/Rank"
  op: "Const"
  attr {
    key: "dtype"
    value {
      type: DT_INT32
    }
  }
  attr {
    key: "value"
    value {
      tensor {
        dtype: DT_INT32
        tensor_shape {
        }
        int_val: 1
      }
    }
  }
}
node {
  name: "bnorm_0/range/start"
  op: "Const"
  attr {
    key: "dtype"
    value {
      type: DT_INT32
    }
  }
  attr {
    key: "value"
    value {
      tensor {
        dtype: DT_INT32
        tensor_shape {
        }
        int_val: 0
      }
    }
  }
}
node {
  name: "bnorm_0/range/delta"
  op: "Const"
  attr {
    key: "dtype"
    value {
      type: DT_INT32
    }
  }
  attr {
    key: "value"
    value {
      tensor {
        dtype: DT_INT32
        tensor_shape {
        }
        int_val: 1
      }
    }
  }
}
node {
  name: "bnorm_0/range"
  op: "Range"
  input: "bnorm_0/range/start"
  input: "bnorm_0/Rank"
  input: "bnorm_0/range/delta"
  attr {
    key: "Tidx"
    value {
      type: DT_INT32
    }
  }
}
node {
  name: "bnorm_0/Prod/input"
  op: "Pack"
  input: "bnorm_0/strided_slice"
  input: "bnorm_0/strided_slice_1"
  input: "bnorm_0/strided_slice_2"
  attr {
    key: "N"
    value {
      i: 3
    }
  }
  attr {
    key: "T"
    value {
      type: DT_INT32
    }
  }
  attr {
    key: "axis"
    value {
      i: 0
    }
  }
}
node {
  name: "bnorm_0/Prod"
  op: "Prod"
  input: "bnorm_0/Prod/input"
  input: "bnorm_0/range"
  attr {
    key: "T"
    value {
      type: DT_INT32
    }
  }
  attr {
    key: "Tidx"
    value {
      type: DT_INT32
    }
  }
  attr {
    key: "keep_dims"
    value {
      b: false
    }
  }
}
node {
  name: "bnorm_0/Cast"
  op: "Cast"
  input: "bnorm_0/Prod"
  attr {
    key: "DstT"
    value {
      type: DT_FLOAT
    }
  }
  attr {
    key: "SrcT"
    value {
      type: DT_INT32
    }
  }
  attr {
    key: "Truncate"
    value {
      b: false
    }
  }
}
node {
  name: "bnorm_0/sub/y"
  op: "Const"
  attr {
    key: "dtype"
    value {
      type: DT_FLOAT
    }
  }
  attr {
    key: "value"
    value {
      tensor {
        dtype: DT_FLOAT
        tensor_shape {
        }
        float_val: 1.0010000467300415
      }
    }
  }
}
node {
  name: "bnorm_0/sub"
  op: "Sub"
  input: "bnorm_0/Cast"
  input: "bnorm_0/sub/y"
  attr {
    key: "T"
    value {
      type: DT_FLOAT
    }
  }
}
node {
  name: "bnorm_0/truediv"
  op: "RealDiv"
  input: "bnorm_0/Cast"
  input: "bnorm_0/sub"
  attr {
    key: "T"
    value {
      type: DT_FLOAT
    }
  }
}
node {
  name: "bnorm_0/mul"
  op: "Mul"
  input: "bnorm_0/FusedBatchNormV3:2"
  input: "bnorm_0/truediv"
  attr {
    key: "T"
    value {
      type: DT_FLOAT
    }
  }
}
node {
  name: "bnorm_0/Const_6"
  op: "Const"
  attr {
    key: "_class"
    value {
      list {
        s: "loc:@bnorm_0/moving_mean"
      }
    }
  }
  attr {
    key: "dtype"
    value {
      type: DT_FLOAT
    }
  }
  attr {
    key: "value"
    value {
      tensor {
        dtype: DT_FLOAT
        tensor_shape {
        }
        float_val: 0.009999999776482582
      }
    }
  }
}
node {
  name: "bnorm_0/ReadVariableOp_2"
  op: "ReadVariableOp"
  input: "bnorm_0/moving_mean"
  attr {
    key: "dtype"
    value {
      type: DT_FLOAT
    }
  }
}
node {
  name: "bnorm_0/sub_1"
  op: "Sub"
  input: "bnorm_0/ReadVariableOp_2"
  input: "bnorm_0/FusedBatchNormV3:1"
  attr {
    key: "T"
    value {
      type: DT_FLOAT
    }
  }
  attr {
    key: "_class"
    value {
      list {
        s: "loc:@bnorm_0/moving_mean"
      }
    }
  }
}
node {
  name: "bnorm_0/mul_1"
  op: "Mul"
  input: "bnorm_0/sub_1"
  input: "bnorm_0/Const_6"
  attr {
    key: "T"
    value {
      type: DT_FLOAT
    }
  }
  attr {
    key: "_class"
    value {
      list {
        s: "loc:@bnorm_0/moving_mean"
      }
    }
  }
}
node {
  name: "bnorm_0/AssignSubVariableOp"
  op: "AssignSubVariableOp"
  input: "bnorm_0/moving_mean"
  input: "bnorm_0/mul_1"
  attr {
    key: "_class"
    value {
      list {
        s: "loc:@bnorm_0/moving_mean"
      }
    }
  }
  attr {
    key: "dtype"
    value {
      type: DT_FLOAT
    }
  }
}
node {
  name: "bnorm_0/ReadVariableOp_3"
  op: "ReadVariableOp"
  input: "bnorm_0/moving_mean"
  input: "^bnorm_0/AssignSubVariableOp"
  attr {
    key: "_class"
    value {
      list {
        s: "loc:@bnorm_0/moving_mean"
      }
    }
  }
  attr {
    key: "dtype"
    value {
      type: DT_FLOAT
    }
  }
}
node {
  name: "bnorm_0/Const_7"
  op: "Const"
  attr {
    key: "_class"
    value {
      list {
        s: "loc:@bnorm_0/moving_variance"
      }
    }
  }
  attr {
    key: "dtype"
    value {
      type: DT_FLOAT
    }
  }
  attr {
    key: "value"
    value {
      tensor {
        dtype: DT_FLOAT
        tensor_shape {
        }
        float_val: 0.009999999776482582
      }
    }
  }
}
node {
  name: "bnorm_0/ReadVariableOp_4"
  op: "ReadVariableOp"
  input: "bnorm_0/moving_variance"
  attr {
    key: "dtype"
    value {
      type: DT_FLOAT
    }
  }
}
node {
  name: "bnorm_0/sub_2"
  op: "Sub"
  input: "bnorm_0/ReadVariableOp_4"
  input: "bnorm_0/mul"
  attr {
    key: "T"
    value {
      type: DT_FLOAT
    }
  }
  attr {
    key: "_class"
    value {
      list {
        s: "loc:@bnorm_0/moving_variance"
      }
    }
  }
}
node {
  name: "bnorm_0/mul_2"
  op: "Mul"
  input: "bnorm_0/sub_2"
  input: "bnorm_0/Const_7"
  attr {
    key: "T"
    value {
      type: DT_FLOAT
    }
  }
  attr {
    key: "_class"
    value {
      list {
        s: "loc:@bnorm_0/moving_variance"
      }
    }
  }
}
node {
  name: "bnorm_0/AssignSubVariableOp_1"
  op: "AssignSubVariableOp"
  input: "bnorm_0/moving_variance"
  input: "bnorm_0/mul_2"
  attr {
    key: "_class"
    value {
      list {
        s: "loc:@bnorm_0/moving_variance"
      }
    }
  }
  attr {
    key: "dtype"
    value {
      type: DT_FLOAT
    }
  }
}
node {
  name: "bnorm_0/ReadVariableOp_5"
  op: "ReadVariableOp"
  input: "bnorm_0/moving_variance"
  input: "^bnorm_0/AssignSubVariableOp_1"
  attr {
    key: "_class"
    value {
      list {
        s: "loc:@bnorm_0/moving_variance"
      }
    }
  }
  attr {
    key: "dtype"
    value {
      type: DT_FLOAT
    }
  }
}
node {
  name: "bnorm_0/ReadVariableOp_6"
  op: "ReadVariableOp"
  input: "bnorm_0/gamma"
  attr {
    key: "dtype"
    value {
      type: DT_FLOAT
    }
  }
}
node {
  name: "bnorm_0/ReadVariableOp_7"
  op: "ReadVariableOp"
  input: "bnorm_0/beta"
  attr {
    key: "dtype"
    value {
      type: DT_FLOAT
    }
  }
}
node {
  name: "bnorm_0/FusedBatchNormV3_1/ReadVariableOp"
  op: "ReadVariableOp"
  input: "bnorm_0/moving_mean"
  attr {
    key: "dtype"
    value {
      type: DT_FLOAT
    }
  }
}
node {
  name: "bnorm_0/FusedBatchNormV3_1/ReadVariableOp_1"
  op: "ReadVariableOp"
  input: "bnorm_0/moving_variance"
  attr {
    key: "dtype"
    value {
      type: DT_FLOAT
    }
  }
}
node {
  name: "bnorm_0/FusedBatchNormV3_1"
  op: "FusedBatchNormV3"
  input: "conv_0/convolution"
  input: "bnorm_0/ReadVariableOp_6"
  input: "bnorm_0/ReadVariableOp_7"
  input: "bnorm_0/FusedBatchNormV3_1/ReadVariableOp"
  input: "bnorm_0/FusedBatchNormV3_1/ReadVariableOp_1"
  attr {
    key: "T"
    value {
      type: DT_FLOAT
    }
  }
  attr {
    key: "U"
    value {
      type: DT_FLOAT
    }
  }
  attr {
    key: "data_format"
    value {
      s: "NHWC"
    }
  }
  attr {
    key: "epsilon"
    value {
      f: 0.0010000000474974513
    }
  }
  attr {
    key: "is_training"
    value {
      b: false
    }
  }
}
node {
  name: "leaky_0/LeakyRelu"
  op: "LeakyRelu"
  input: "bnorm_0/FusedBatchNormV3_1"
  attr {
    key: "T"
    value {
      type: DT_FLOAT
    }
  }
  attr {
    key: "alpha"
    value {
      f: 0.10000000149011612
    }
  }
}
node {
  name: "zero_padding2d_1/Pad/paddings"
  op: "Const"
  attr {
    key: "dtype"
    value {
      type: DT_INT32
    }
  }
  attr {
    key: "value"
    value {
      tensor {
        dtype: DT_INT32
        tensor_shape {
          dim {
            size: 4
          }
          dim {
            size: 2
          }
        }
        tensor_content: "…"
      }
    }
  }
}
node {
  name: "zero_padding2d_1/Pad"
  op: "Pad"
  input: "leaky_0/LeakyRelu"
  input: "zero_padding2d_1/Pad/paddings"
  attr {
    key: "T"
    value {
      type: DT_FLOAT
    }
  }
  attr {
    key: "Tpaddings"
    value {
      type: DT_INT32
    }
  }
}
node {
  name: "conv_1/random_uniform/shape"
  op: "Const"
  attr {
    key: "dtype"
    value {
      type: DT_INT32
    }
  }
  attr {
    key: "value"
    value {
      tensor {
        dtype: DT_INT32
        tensor_shape {
          dim {
            size: 4
          }
        }
        tensor_content: "\003\000\000\000\003\000\000\000 \000\000\000@\000\000\000"
      }
    }
  }
}
node {
  name: "conv_1/random_uniform/min"
  op: "Const"
  attr {
    key: "dtype"
    value {
      type: DT_FLOAT
    }
  }
  attr {
    key: "value"
    value {
      tensor {
        dtype: DT_FLOAT
        tensor_shape {
        }
        float_val: -0.0833333358168602
      }
    }
  }
}
node {
  name: "conv_1/random_uniform/max"
  op: "Const"
  attr {
    key: "dtype"
    value {
      type: DT_FLOAT
    }
  }
  attr {
    key: "value"
    value {
      tensor {
        dtype: DT_FLOAT
        tensor_shape {
        }
        float_val: 0.0833333358168602
      }
    }
  }
}
node {
  name: "conv_1/random_uniform/RandomUniform"
  op: "RandomUniform"
  input: "conv_1/random_uniform/shape"
  attr {
    key: "T"
    value {
      type: DT_INT32
    }
  }
  attr {
    key: "dtype"
    value {
      type: DT_FLOAT
    }
  }
  attr {
    key: "seed"
    value {
      i: 87654321
    }
  }
  attr {
    key: "seed2"
    value {
      i: 2097501
    }
  }
}
node {
  name: "conv_1/random_uniform/sub"
  op: "Sub"
  input: "conv_1/random_uniform/max"
  input: "conv_1/random_uniform/min"
  attr {
    key: "T"
    value {
      type: DT_FLOAT
    }
  }
}
node {
  name: "conv_1/random_uniform/mul"
  op: "Mul"
  input: "conv_1/random_uniform/RandomUniform"
  input: "conv_1/random_uniform/sub"
  attr {
    key: "T"
    value {
      type: DT_FLOAT
    }
  }
}
node {
  name: "conv_1/random_uniform"
  op: "Add"
  input: "conv_1/random_uniform/mul"
  input: "conv_1/random_uniform/min"
  attr {
    key: "T"
    value {
      type: DT_FLOAT
    }
  }
}
node {
  name: "conv_1/kernel"
  op: "VarHandleOp"
  attr {
    key: "_class"
    value {
      list {
        s: "loc:@conv_1/kernel"
      }
    }
  }
  attr {
    key: "container"
    value {
      s: ""
    }
  }
  attr {
    key: "dtype"
    value {
      type: DT_FLOAT
    }
  }
  attr {
    key: "shape"
    value {
      shape {
        dim {
          size: 3
        }
        dim {
          size: 3
        }
        dim {
          size: 32
        }
        dim {
          size: 64
        }
      }
    }
  }
  attr {
    key: "shared_name"
    value {
      s: "conv_1/kernel"
    }
  }
}
node {
  name: "conv_1/kernel/IsInitialized/VarIsInitializedOp"
  op: "VarIsInitializedOp"
  input: "conv_1/kernel"
}
node {
  name: "conv_1/kernel/Assign"
  op: "AssignVariableOp"
  input: "conv_1/kernel"
  input: "conv_1/random_uniform"
  attr {
    key: "dtype"
    value {
      type: DT_FLOAT
    }
  }
}
node {
  name: "conv_1/kernel/Read/ReadVariableOp"
  op: "ReadVariableOp"
  input: "conv_1/kernel"
  attr {
    key: "dtype"
    value {
      type: DT_FLOAT
    }
  }
}
node {
  name: "conv_1/convolution/ReadVariableOp"
  op: "ReadVariableOp"
  input: "conv_1/kernel"
  attr {
    key: "dtype"
    value {
      type: DT_FLOAT
    }
  }
}
node {
  name: "conv_1/convolution"
  op: "Conv2D"
  input: "zero_padding2d_1/Pad"
  input: "conv_1/convolution/ReadVariableOp"
  attr {
    key: "T"
    value {
      type: DT_FLOAT
    }
  }
  attr {
    key: "data_format"
    value {
      s: "NHWC"
    }
  }
  attr {
    key: "dilations"
    value {
      list {
        i: 1
        i: 1
        i: 1
        i: 1
      }
    }
  }
  attr {
    key: "explicit_paddings"
    value {
      list {
      }
    }
  }
  attr {
    key: "padding"
    value {
      s: "VALID"
    }
  }
  attr {
    key: "strides"
    value {
      list {
        i: 1
        i: 2
        i: 2
        i: 1
      }
    }
  }
  attr {
    key: "use_cudnn_on_gpu"
    value {
      b: true
    }
  }
}
node {
  name: "bnorm_1/Const"
  op: "Const"
  attr {
    key: "dtype"
    value {
      type: DT_FLOAT
    }
  }
  attr {
    key: "value"
    value {
      tensor {
        dtype: DT_FLOAT
        tensor_shape {
          dim {
            size: 64
          }
        }
        float_val: 1.0
      }
    }
  }
}
node {
  name: "bnorm_1/gamma"
  op: "VarHandleOp"
  attr {
    key: "_class"
    value {
      list {
        s: "loc:@bnorm_1/gamma"
      }
    }
  }
  attr {
    key: "container"
    value {
      s: ""
    }
  }
  attr {
    key: "dtype"
    value {
      type: DT_FLOAT
    }
  }
  attr {
    key: "shape"
    value {
      shape {
        dim {
          size: 64
        }
      }
    }
  }
  attr {
    key: "shared_name"
    value {
      s: "bnorm_1/gamma"
    }
  }
}
node {
  name: "bnorm_1/gamma/IsInitialized/VarIsInitializedOp"
  op: "VarIsInitializedOp"
  input: "bnorm_1/gamma"
}
node {
  name: "bnorm_1/gamma/Assign"
  op: "AssignVariableOp"
  input: "bnorm_1/gamma"
  input: "bnorm_1/Const"
  attr {
    key: "dtype"
    value {
      type: DT_FLOAT
    }
  }
}
node {
  name: "bnorm_1/gamma/Read/ReadVariableOp"
  op: "ReadVariableOp"
  input: "bnorm_1/gamma"
  attr {
    key: "dtype"
    value {
      type: DT_FLOAT
    }
  }
}
node {
  name: "bnorm_1/Const_1"
  op: "Const"
  attr {
    key: "dtype"
    value {
      type: DT_FLOAT
    }
  }
  attr {
    key: "value"
    value {
      tensor {
        dtype: DT_FLOAT
        tensor_shape {
          dim {
            size: 64
          }
        }
        float_val: 0.0
      }
    }
  }
}
node {
  name: "bnorm_1/beta"
  op: "VarHandleOp"
  attr {
    key: "_class"
    value {
      list {
        s: "loc:@bnorm_1/beta"
      }
    }
  }
  attr {
    key: "container"
    value {
      s: ""
    }
  }
  attr {
    key: "dtype"
    value {
      type: DT_FLOAT
    }
  }
  attr {
    key: "shape"
    value {
      shape {
        dim {
          size: 64
        }
      }
    }
  }
  attr {
    key: "shared_name"
    value {
      s: "bnorm_1/beta"
    }
  }
}
node {
  name: "bnorm_1/beta/IsInitialized/VarIsInitializedOp"
  op: "VarIsInitializedOp"
  input: "bnorm_1/beta"
}
node {
  name: "bnorm_1/beta/Assign"
  op: "AssignVariableOp"
  input: "bnorm_1/beta"
  input: "bnorm_1/Const_1"
  attr {
    key: "dtype"
    value {
      type: DT_FLOAT
    }
  }
}
node {
  name: "bnorm_1/beta/Read/ReadVariableOp"
  op: "ReadVariableOp"
  input: "bnorm_1/beta"
  attr {
    key: "dtype"
    value {
      type: DT_FLOAT
    }
  }
}
node {
  name: "bnorm_1/Const_2"
  op: "Const"
  attr {
    key: "dtype"
    value {
      type: DT_FLOAT
    }
  }
  attr {
    key: "value"
    value {
      tensor {
        dtype: DT_FLOAT
        tensor_shape {
          dim {
            size: 64
          }
        }
        float_val: 0.0
      }
    }
  }
}
node {
  name: "bnorm_1/moving_mean"
  op: "VarHandleOp"
  attr {
    key: "_class"
    value {
      list {
        s: "loc:@bnorm_1/moving_mean"
      }
    }
  }
  attr {
    key: "container"
    value {
      s: ""
    }
  }
  attr {
    key: "dtype"
    value {
      type: DT_FLOAT
    }
  }
  attr {
    key: "shape"
    value {
      shape {
        dim {
          size: 64
        }
      }
    }
  }
  attr {
    key: "shared_name"
    value {
      s: "bnorm_1/moving_mean"
    }
  }
}
node {
  name: "bnorm_1/moving_mean/IsInitialized/VarIsInitializedOp"
  op: "VarIsInitializedOp"
  input: "bnorm_1/moving_mean"
}
node {
  name: "bnorm_1/moving_mean/Assign"
  op: "AssignVariableOp"
  input: "bnorm_1/moving_mean"
  input: "bnorm_1/Const_2"
  attr {
    key: "dtype"
    value {
      type: DT_FLOAT
    }
  }
}
node {
  name: "bnorm_1/moving_mean/Read/ReadVariableOp"
  op: "ReadVariableOp"
  input: "bnorm_1/moving_mean"
  attr {
    key: "dtype"
    value {
      type: DT_FLOAT
    }
  }
}
node {
  name: "bnorm_1/Const_3"
  op: "Const"
  attr {
    key: "dtype"
    value {
      type: DT_FLOAT
    }
  }
  attr {
    key: "value"
    value {
      tensor {
        dtype: DT_FLOAT
        tensor_shape {
          dim {
            size: 64
          }
        }
        float_val: 1.0
      }
    }
  }
}
node {
  name: "bnorm_1/moving_variance"
  op: "VarHandleOp"
  attr {
    key: "_class"
    value {
      list {
        s: "loc:@bnorm_1/moving_variance"
      }
    }
  }
  attr {
    key: "container"
    value {
      s: ""
    }
  }
  attr {
    key: "dtype"
    value {
      type: DT_FLOAT
    }
  }
  attr {
    key: "shape"
    value {
      shape {
        dim {
          size: 64
        }
      }
    }
  }
  attr {
    key: "shared_name"
    value {
      s: "bnorm_1/moving_variance"
    }
  }
}
node {
  name: "bnorm_1/moving_variance/IsInitialized/VarIsInitializedOp"
  op: "VarIsInitializedOp"
  input: "bnorm_1/moving_variance"
}
node {
  name: "bnorm_1/moving_variance/Assign"
  op: "AssignVariableOp"
  input: "bnorm_1/moving_variance"
  input: "bnorm_1/Const_3"
  attr {
    key: "dtype"
    value {
      type: DT_FLOAT
    }
  }
}
node {
  name: "bnorm_1/moving_variance/Read/ReadVariableOp"
  op: "ReadVariableOp"
  input: "bnorm_1/moving_variance"
  attr {
    key: "dtype"
    value {
      type: DT_FLOAT
    }
  }
}
node {
  name: "bnorm_1/ReadVariableOp"
  op: "ReadVariableOp"
  input: "bnorm_1/gamma"
  attr {
    key: "dtype"
    value {
      type: DT_FLOAT
    }
  }
}
node {
  name: "bnorm_1/ReadVariableOp_1"
  op: "ReadVariableOp"
  input: "bnorm_1/beta"
  attr {
    key: "dtype"
    value {
      type: DT_FLOAT
    }
  }
}
node {
  name: "bnorm_1/Const_4"
  op: "Const"
  attr {
    key: "dtype"
    value {
      type: DT_FLOAT
    }
  }
  attr {
    key: "value"
    value {
      tensor {
        dtype: DT_FLOAT
        tensor_shape {
          dim {
          }
        }
      }
    }
  }
}
node {
  name: "bnorm_1/Const_5"
  op: "Const"
  attr {
    key: "dtype"
    value {
      type: DT_FLOAT
    }
  }
  attr {
    key: "value"
    value {
      tensor {
        dtype: DT_FLOAT
        tensor_shape {
          dim {
          }
        }
      }
    }
  }
}
node {
  name: "bnorm_1/FusedBatchNormV3"
  op: "FusedBatchNormV3"
  input: "conv_1/convolution"
  input: "bnorm_1/ReadVariableOp"
  input: "bnorm_1/ReadVariableOp_1"
  input: "bnorm_1/Const_4"
  input: "bnorm_1/Const_5"
  attr {
    key: "T"
    value {
      type: DT_FLOAT
    }
  }
  attr {
    key: "U"
    value {
      type: DT_FLOAT
    }
  }
  attr {
    key: "data_format"
    value {
      s: "NHWC"
    }
  }
  attr {
    key: "epsilon"
    value {
      f: 0.0010000000474974513
    }
  }
  attr {
    key: "is_training"
    value {
      b: true
    }
  }
}
node {
  name: "bnorm_1/Shape"
  op: "Shape"
  input: "conv_1/convolution"
  attr {
    key: "T"
    value {
      type: DT_FLOAT
    }
  }
  attr {
    key: "out_type"
    value {
      type: DT_INT32
    }
  }
}
node {
  name: "bnorm_1/strided_slice/stack"
  op: "Const"
  attr {
    key: "dtype"
    value {
      type: DT_INT32
    }
  }
  attr {
    key: "value"
    value {
      tensor {
        dtype: DT_INT32
        tensor_shape {
          dim {
            size: 1
          }
        }
        int_val: 0
      }
    }
  }
}
node {
  name: "bnorm_1/strided_slice/stack_1"
  op: "Const"
  attr {
    key: "dtype"
    value {
      type: DT_INT32
    }
  }
  attr {
    key: "value"
    value {
      tensor {
        dtype: DT_INT32
        tensor_shape {
          dim {
            size: 1
          }
        }
        int_val: 1
      }
    }
  }
}
node {
  name: "bnorm_1/strided_slice/stack_2"
  op: "Const"
  attr {
    key: "dtype"
    value {
      type: DT_INT32
    }
  }
  attr {
    key: "value"
    value {
      tensor {
        dtype: DT_INT32
        tensor_shape {
          dim {
            size: 1
          }
        }
        int_val: 1
      }
    }
  }
}
node {
  name: "bnorm_1/strided_slice"
  op: "StridedSlice"
  input: "bnorm_1/Shape"
  input: "bnorm_1/strided_slice/stack"
  input: "bnorm_1/strided_slice/stack_1"
  input: "bnorm_1/strided_slice/stack_2"
  attr {
    key: "Index"
    value {
      type: DT_INT32
    }
  }
  attr {
    key: "T"
    value {
      type: DT_INT32
    }
  }
  attr {
    key: "begin_mask"
    value {
      i: 0
    }
  }
  attr {
    key: "ellipsis_mask"
    value {
      i: 0
    }
  }
  attr {
    key: "end_mask"
    value {
      i: 0
    }
  }
  attr {
    key: "new_axis_mask"
    value {
      i: 0
    }
  }
  attr {
    key: "shrink_axis_mask"
    value {
      i: 1
    }
  }
}
node {
  name: "bnorm_1/Shape_1"
  op: "Shape"
  input: "conv_1/convolution"
  attr {
    key: "T"
    value {
      type: DT_FLOAT
    }
  }
  attr {
    key: "out_type"
    value {
      type: DT_INT32
    }
  }
}
node {
  name: "bnorm_1/strided_slice_1/stack"
  op: "Const"
  attr {
    key: "dtype"
    value {
      type: DT_INT32
    }
  }
  attr {
    key: "value"
    value {
      tensor {
        dtype: DT_INT32
        tensor_shape {
          dim {
            size: 1
          }
        }
        int_val: 1
      }
    }
  }
}
node {
  name: "bnorm_1/strided_slice_1/stack_1"
  op: "Const"
  attr {
    key: "dtype"
    value {
      type: DT_INT32
    }
  }
  attr {
    key: "value"
    value {
      tensor {
        dtype: DT_INT32
        tensor_shape {
          dim {
            size: 1
          }
        }
        int_val: 2
      }
    }
  }
}
node {
  name: "bnorm_1/strided_slice_1/stack_2"
  op: "Const"
  attr {
    key: "dtype"
    value {
      type: DT_INT32
    }
  }
  attr {
    key: "value"
    value {
      tensor {
        dtype: DT_INT32
        tensor_shape {
          dim {
            size: 1
          }
        }
        int_val: 1
      }
    }
  }
}
node {
  name: "bnorm_1/strided_slice_1"
  op: "StridedSlice"
  input: "bnorm_1/Shape_1"
  input: "bnorm_1/strided_slice_1/stack"
  input: "bnorm_1/strided_slice_1/stack_1"
  input: "bnorm_1/strided_slice_1/stack_2"
  attr {
    key: "Index"
    value {
      type: DT_INT32
    }
  }
  attr {
    key: "T"
    value {
      type: DT_INT32
    }
  }
  attr {
    key: "begin_mask"
    value {
      i: 0
    }
  }
  attr {
    key: "ellipsis_mask"
    value {
      i: 0
    }
  }
  attr {
    key: "end_mask"
    value {
      i: 0
    }
  }
  attr {
    key: "new_axis_mask"
    value {
      i: 0
    }
  }
  attr {
    key: "shrink_axis_mask"
    value {
      i: 1
    }
  }
}
node {
  name: "bnorm_1/Shape_2"
  op: "Shape"
  input: "conv_1/convolution"
  attr {
    key: "T"
    value {
      type: DT_FLOAT
    }
  }
  attr {
    key: "out_type"
    value {
      type: DT_INT32
    }
  }
}
node {
  name: "bnorm_1/strided_slice_2/stack"
  op: "Const"
  attr {
    key: "dtype"
    value {
      type: DT_INT32
    }
  }
  attr {
    key: "value"
    value {
      tensor {
        dtype: DT_INT32
        tensor_shape {
          dim {
            size: 1
          }
        }
        int_val: 2
      }
    }
  }
}
node {
  name: "bnorm_1/strided_slice_2/stack_1"
  op: "Const"
  attr {
    key: "dtype"
    value {
      type: DT_INT32
    }
  }
  attr {
    key: "value"
    value {
      tensor {
        dtype: DT_INT32
        tensor_shape {
          dim {
            size: 1
          }
        }
        int_val: 3
      }
    }
  }
}
node {
  name: "bnorm_1/strided_slice_2/stack_2"
  op: "Const"
  attr {
    key: "dtype"
    value {
      type: DT_INT32
    }
  }
  attr {
    key: "value"
    value {
      tensor {
        dtype: DT_INT32
        tensor_shape {
          dim {
            size: 1
          }
        }
        int_val: 1
      }
    }
  }
}
node {
  name: "bnorm_1/strided_slice_2"
  op: "StridedSlice"
  input: "bnorm_1/Shape_2"
  input: "bnorm_1/strided_slice_2/stack"
  input: "bnorm_1/strided_slice_2/stack_1"
  input: "bnorm_1/strided_slice_2/stack_2"
  attr {
    key: "Index"
    value {
      type: DT_INT32
    }
  }
  attr {
    key: "T"
    value {
      type: DT_INT32
    }
  }
  attr {
    key: "begin_mask"
    value {
      i: 0
    }
  }
  attr {
    key: "ellipsis_mask"
    value {
      i: 0
    }
  }
  attr {
    key: "end_mask"
    value {
      i: 0
    }
  }
  attr {
    key: "new_axis_mask"
    value {
      i: 0
    }
  }
  attr {
    key: "shrink_axis_mask"
    value {
      i: 1
    }
  }
}
node {
  name: "bnorm_1/Rank/packed"
  op: "Pack"
  input: "bnorm_1/strided_slice"
  input: "bnorm_1/strided_slice_1"
  input: "bnorm_1/strided_slice_2"
  attr {
    key: "N"
    value {
      i: 3
    }
  }
  attr {
    key: "T"
    value {
      type: DT_INT32
    }
  }
  attr {
    key: "axis"
    value {
      i: 0
    }
  }
}
node {
  name: "bnorm_1/Rank"
  op: "Const"
  attr {
    key: "dtype"
    value {
      type: DT_INT32
    }
  }
  attr {
    key: "value"
    value {
      tensor {
        dtype: DT_INT32
        tensor_shape {
        }
        int_val: 1
      }
    }
  }
}
node {
  name: "bnorm_1/range/start"
  op: "Const"
  attr {
    key: "dtype"
    value {
      type: DT_INT32
    }
  }
  attr {
    key: "value"
    value {
      tensor {
        dtype: DT_INT32
        tensor_shape {
        }
        int_val: 0
      }
    }
  }
}
node {
  name: "bnorm_1/range/delta"
  op: "Const"
  attr {
    key: "dtype"
    value {
      type: DT_INT32
    }
  }
  attr {
    key: "value"
    value {
      tensor {
        dtype: DT_INT32
        tensor_shape {
        }
        int_val: 1
      }
    }
  }
}
node {
  name: "bnorm_1/range"
  op: "Range"
  input: "bnorm_1/range/start"
  input: "bnorm_1/Rank"
  input: "bnorm_1/range/delta"
  attr {
    key: "Tidx"
    value {
      type: DT_INT32
    }
  }
}
node {
  name: "bnorm_1/Prod/input"
  op: "Pack"
  input: "bnorm_1/strided_slice"
  input: "bnorm_1/strided_slice_1"
  input: "bnorm_1/strided_slice_2"
  attr {
    key: "N"
    value {
      i: 3
    }
  }
  attr {
    key: "T"
    value {
      type: DT_INT32
    }
  }
  attr {
    key: "axis"
    value {
      i: 0
    }
  }
}
node {
  name: "bnorm_1/Prod"
  op: "Prod"
  input: "bnorm_1/Prod/input"
  input: "bnorm_1/range"
  attr {
    key: "T"
    value {
      type: DT_INT32
    }
  }
  attr {
    key: "Tidx"
    value {
      type: DT_INT32
    }
  }
  attr {
    key: "keep_dims"
    value {
      b: false
    }
  }
}
node {
  name: "bnorm_1/Cast"
  op: "Cast"
  input: "bnorm_1/Prod"
  attr {
    key: "DstT"
    value {
      type: DT_FLOAT
    }
  }
  attr {
    key: "SrcT"
    value {
      type: DT_INT32
    }
  }
  attr {
    key: "Truncate"
    value {
      b: false
    }
  }
}
node {
  name: "bnorm_1/sub/y"
  op: "Const"
  attr {
    key: "dtype"
    value {
      type: DT_FLOAT
    }
  }
  attr {
    key: "value"
    value {
      tensor {
        dtype: DT_FLOAT
        tensor_shape {
        }
        float_val: 1.0010000467300415
      }
    }
  }
}
node {
  name: "bnorm_1/sub"
  op: "Sub"
  input: "bnorm_1/Cast"
  input: "bnorm_1/sub/y"
  attr {
    key: "T"
    value {
      type: DT_FLOAT
    }
  }
}
node {
  name: "bnorm_1/truediv"
  op: "RealDiv"
  input: "bnorm_1/Cast"
  input: "bnorm_1/sub"
  attr {
    key: "T"
    value {
      type: DT_FLOAT
    }
  }
}
node {
  name: "bnorm_1/mul"
  op: "Mul"
  input: "bnorm_1/FusedBatchNormV3:2"
  input: "bnorm_1/truediv"
  attr {
    key: "T"
    value {
      type: DT_FLOAT
    }
  }
}
node {
  name: "bnorm_1/Const_6"
  op: "Const"
  attr {
    key: "_class"
    value {
      list {
        s: "loc:@bnorm_1/moving_mean"
      }
    }
  }
  attr {
    key: "dtype"
    value {
      type: DT_FLOAT
    }
  }
  attr {
    key: "value"
    value {
      tensor {
        dtype: DT_FLOAT
        tensor_shape {
        }
        float_val: 0.009999999776482582
      }
    }
  }
}
node {
  name: "bnorm_1/ReadVariableOp_2"
  op: "ReadVariableOp"
  input: "bnorm_1/moving_mean"
  attr {
    key: "dtype"
    value {
      type: DT_FLOAT
    }
  }
}
node {
  name: "bnorm_1/sub_1"
  op: "Sub"
  input: "bnorm_1/ReadVariableOp_2"
  input: "bnorm_1/FusedBatchNormV3:1"
  attr {
    key: "T"
    value {
      type: DT_FLOAT
    }
  }
  attr {
    key: "_class"
    value {
      list {
        s: "loc:@bnorm_1/moving_mean"
      }
    }
  }
}
node {
  name: "bnorm_1/mul_1"
  op: "Mul"
  input: "bnorm_1/sub_1"
  input: "bnorm_1/Const_6"
  attr {
    key: "T"
    value {
      type: DT_FLOAT
    }
  }
  attr {
    key: "_class"
    value {
      list {
        s: "loc:@bnorm_1/moving_mean"
      }
    }
  }
}
node {
  name: "bnorm_1/AssignSubVariableOp"
  op: "AssignSubVariableOp"
  input: "bnorm_1/moving_mean"
  input: "bnorm_1/mul_1"
  attr {
    key: "_class"
    value {
      list {
        s: "loc:@bnorm_1/moving_mean"
      }
    }
  }
  attr {
    key: "dtype"
    value {
      type: DT_FLOAT
    }
  }
}
node {
  name: "bnorm_1/ReadVariableOp_3"
  op: "ReadVariableOp"
  input: "bnorm_1/moving_mean"
  input: "^bnorm_1/AssignSubVariableOp"
  attr {
    key: "_class"
    value {
      list {
        s: "loc:@bnorm_1/moving_mean"
      }
    }
  }
  attr {
    key: "dtype"
    value {
      type: DT_FLOAT
    }
  }
}
node {
  name: "bnorm_1/Const_7"
  op: "Const"
  attr {
    key: "_class"
    value {
      list {
        s: "loc:@bnorm_1/moving_variance"
      }
    }
  }
  attr {
    key: "dtype"
    value {
      type: DT_FLOAT
    }
  }
  attr {
    key: "value"
    value {
      tensor {
        dtype: DT_FLOAT
        tensor_shape {
        }
        float_val: 0.009999999776482582
      }
    }
  }
}
node {
  name: "bnorm_1/ReadVariableOp_4"
  op: "ReadVariableOp"
  input: "bnorm_1/moving_variance"
  attr {
    key: "dtype"
    value {
      type: DT_FLOAT
    }
  }
}
node {
  name: "bnorm_1/sub_2"
  op: "Sub"
  input: "bnorm_1/ReadVariableOp_4"
  input: "bnorm_1/mul"
  attr {
    key: "T"
    value {
      type: DT_FLOAT
    }
  }
  attr {
    key: "_class"
    value {
      list {
        s: "loc:@bnorm_1/moving_variance"
      }
    }
  }
}
node {
  name: "bnorm_1/mul_2"
  op: "Mul"
  input: "bnorm_1/sub_2"
  input: "bnorm_1/Const_7"
  attr {
    key: "T"
    value {
      type: DT_FLOAT
    }
  }
  attr {
    key: "_class"
    value {
      list {
        s: "loc:@bnorm_1/moving_variance"
      }
    }
  }
}
node {
  name: "bnorm_1/AssignSubVariableOp_1"
  op: "AssignSubVariableOp"
  input: "bnorm_1/moving_variance"
  input: "bnorm_1/mul_2"
  attr {
    key: "_class"
    value {
      list {
        s: "loc:@bnorm_1/moving_variance"
      }
    }
  }
  attr {
    key: "dtype"
    value {
      type: DT_FLOAT
    }
  }
}
node {
  name: "bnorm_1/ReadVariableOp_5"
  op: "ReadVariableOp"
  input: "bnorm_1/moving_variance"
  input: "^bnorm_1/AssignSubVariableOp_1"
  attr {
    key: "_class"
    value {
      list {
        s: "loc:@bnorm_1/moving_variance"
      }
    }
  }
  attr {
    key: "dtype"
    value {
      type: DT_FLOAT
    }
  }
}
node {
  name: "bnorm_1/ReadVariableOp_6"
  op: "ReadVariableOp"
  input: "bnorm_1/gamma"
  attr {
    key: "dtype"
    value {
      type: DT_FLOAT
    }
  }
}
node {
  name: "bnorm_1/ReadVariableOp_7"
  op: "ReadVariableOp"
  input: "bnorm_1/beta"
  attr {
    key: "dtype"
    value {
      type: DT_FLOAT
    }
  }
}
node {
  name: "bnorm_1/FusedBatchNormV3_1/ReadVariableOp"
  op: "ReadVariableOp"
  input: "bnorm_1/moving_mean"
  attr {
    key: "dtype"
    value {
      type: DT_FLOAT
    }
  }
}
node {
  name: "bnorm_1/FusedBatchNormV3_1/ReadVariableOp_1"
  op: "ReadVariableOp"
  input: "bnorm_1/moving_variance"
  attr {
    key: "dtype"
    value {
      type: DT_FLOAT
    }
  }
}
node {
  name: "bnorm_1/FusedBatchNormV3_1"
  op: "FusedBatchNormV3"
  input: "conv_1/convolution"
  input: "bnorm_1/ReadVariableOp_6"
  input: "bnorm_1/ReadVariableOp_7"
  input: "bnorm_1/FusedBatchNormV3_1/ReadVariableOp"
  input: "bnorm_1/FusedBatchNormV3_1/ReadVariableOp_1"
  attr {
    key: "T"
    value {
      type: DT_FLOAT
    }
  }
  attr {
    key: "U"
    value {
      type: DT_FLOAT
    }
  }
  attr {
    key: "data_format"
    value {
      s: "NHWC"
    }
  }
  attr {
    key: "epsilon"
    value {
      f: 0.0010000000474974513
    }
  }
  attr {
    key: "is_training"
    value {
      b: false
    }
  }
}
node {
  name: "leaky_1/LeakyRelu"
  op: "LeakyRelu"
  input: "bnorm_1/FusedBatchNormV3_1"
  attr {
    key: "T"
    value {
      type: DT_FLOAT
    }
  }
  attr {
    key: "alpha"
    value {
      f: 0.10000000149011612
    }
  }
}
node {
  name: "conv_2/random_uniform/shape"
  op: "Const"
  attr {
    key: "dtype"
    value {
      type: DT_INT32
    }
  }
  attr {
    key: "value"
    value {
      tensor {
        dtype: DT_INT32
        tensor_shape {
          dim {
            size: 4
          }
        }
        tensor_content: "\001\000\000\000\001\000\000\000@\000\000\000 \000\000\000"
      }
    }
  }
}
node {
  name: "conv_2/random_uniform/min"
  op: "Const"
  attr {
    key: "dtype"
    value {
      type: DT_FLOAT
    }
  }
  attr {
    key: "value"
    value {
      tensor {
        dtype: DT_FLOAT
        tensor_shape {
        }
        float_val: -0.25
      }
    }
  }
}
node {
  name: "conv_2/random_uniform/max"
  op: "Const"
  attr {
    key: "dtype"
    value {
      type: DT_FLOAT
    }
  }
  attr {
    key: "value"
    value {
      tensor {
        dtype: DT_FLOAT
        tensor_shape {
        }
        float_val: 0.25
      }
    }
  }
}
node {
  name: "conv_2/random_uniform/RandomUniform"
  op: "RandomUniform"
  input: "conv_2/random_uniform/shape"
  attr {
    key: "T"
    value {
      type: DT_INT32
    }
  }
  attr {
    key: "dtype"
    value {
      type: DT_FLOAT
    }
  }
  attr {
    key: "seed"
    value {
      i: 87654321
    }
  }
  attr {
    key: "seed2"
    value {
      i: 3709879
    }
  }
}
node {
  name: "conv_2/random_uniform/sub"
  op: "Sub"
  input: "conv_2/random_uniform/max"
  input: "conv_2/random_uniform/min"
  attr {
    key: "T"
    value {
      type: DT_FLOAT
    }
  }
}
node {
  name: "conv_2/random_uniform/mul"
  op: "Mul"
  input: "conv_2/random_uniform/RandomUniform"
  input: "conv_2/random_uniform/sub"
  attr {
    key: "T"
    value {
      type: DT_FLOAT
    }
  }
}
node {
  name: "conv_2/random_uniform"
  op: "Add"
  input: "conv_2/random_uniform/mul"
  input: "conv_2/random_uniform/min"
  attr {
    key: "T"
    value {
      type: DT_FLOAT
    }
  }
}
node {
  name: "conv_2/kernel"
  op: "VarHandleOp"
  attr {
    key: "_class"
    value {
      list {
        s: "loc:@conv_2/kernel"
      }
    }
  }
  attr {
    key: "container"
    value {
      s: ""
    }
  }
  attr {
    key: "dtype"
    value {
      type: DT_FLOAT
    }
  }
  attr {
    key: "shape"
    value {
      shape {
        dim {
          size: 1
        }
        dim {
          size: 1
        }
        dim {
          size: 64
        }
        dim {
          size: 32
        }
      }
    }
  }
  attr {
    key: "shared_name"
    value {
      s: "conv_2/kernel"
    }
  }
}
node {
  name: "conv_2/kernel/IsInitialized/VarIsInitializedOp"
  op: "VarIsInitializedOp"
  input: "conv_2/kernel"
}
node {
  name: "conv_2/kernel/Assign"
  op: "AssignVariableOp"
  input: "conv_2/kernel"
  input: "conv_2/random_uniform"
  attr {
    key: "dtype"
    value {
      type: DT_FLOAT
    }
  }
}
node {
  name: "conv_2/kernel/Read/ReadVariableOp"
  op: "ReadVariableOp"
  input: "conv_2/kernel"
  attr {
    key: "dtype"
    value {
      type: DT_FLOAT
    }
  }
}
node {
  name: "conv_2/convolution/ReadVariableOp"
  op: "ReadVariableOp"
  input: "conv_2/kernel"
  attr {
    key: "dtype"
    value {
      type: DT_FLOAT
    }
  }
}
node {
  name: "conv_2/convolution"
  op: "Conv2D"
  input: "leaky_1/LeakyRelu"
  input: "conv_2/convolution/ReadVariableOp"
  attr {
    key: "T"
    value {
      type: DT_FLOAT
    }
  }
  attr {
    key: "data_format"
    value {
      s: "NHWC"
    }
  }
  attr {
    key: "dilations"
    value {
      list {
        i: 1
        i: 1
        i: 1
        i: 1
      }
    }
  }
  attr {
    key: "explicit_paddings"
    value {
      list {
      }
    }
  }
  attr {
    key: "padding"
    value {
      s: "SAME"
    }
  }
  attr {
    key: "strides"
    value {
      list {
        i: 1
        i: 1
        i: 1
        i: 1
      }
    }
  }
  attr {
    key: "use_cudnn_on_gpu"
    value {
      b: true
    }
  }
}
node {
  name: "bnorm_2/Const"
  op: "Const"
  attr {
    key: "dtype"
    value {
      type: DT_FLOAT
    }
  }
  attr {
    key: "value"
    value {
      tensor {
        dtype: DT_FLOAT
        tensor_shape {
          dim {
            size: 32
          }
        }
        float_val: 1.0
      }
    }
  }
}
node {
  name: "bnorm_2/gamma"
  op: "VarHandleOp"
  attr {
    key: "_class"
    value {
      list {
        s: "loc:@bnorm_2/gamma"
      }
    }
  }
  attr {
    key: "container"
    value {
      s: ""
    }
  }
  attr {
    key: "dtype"
    value {
      type: DT_FLOAT
    }
  }
  attr {
    key: "shape"
    value {
      shape {
        dim {
          size: 32
        }
      }
    }
  }
  attr {
    key: "shared_name"
    value {
      s: "bnorm_2/gamma"
    }
  }
}
node {
  name: "bnorm_2/gamma/IsInitialized/VarIsInitializedOp"
  op: "VarIsInitializedOp"
  input: "bnorm_2/gamma"
}
node {
  name: "bnorm_2/gamma/Assign"
  op: "AssignVariableOp"
  input: "bnorm_2/gamma"
  input: "bnorm_2/Const"
  attr {
    key: "dtype"
    value {
      type: DT_FLOAT
    }
  }
}
node {
  name: "bnorm_2/gamma/Read/ReadVariableOp"
  op: "ReadVariableOp"
  input: "bnorm_2/gamma"
  attr {
    key: "dtype"
    value {
      type: DT_FLOAT
    }
  }
}
node {
  name: "bnorm_2/Const_1"
  op: "Const"
  attr {
    key: "dtype"
    value {
      type: DT_FLOAT
    }
  }
  attr {
    key: "value"
    value {
      tensor {
        dtype: DT_FLOAT
        tensor_shape {
          dim {
            size: 32
          }
        }
        float_val: 0.0
      }
    }
  }
}
node {
  name: "bnorm_2/beta"
  op: "VarHandleOp"
  attr {
    key: "_class"
    value {
      list {
        s: "loc:@bnorm_2/beta"
      }
    }
  }
  attr {
    key: "container"
    value {
      s: ""
    }
  }
  attr {
    key: "dtype"
    value {
      type: DT_FLOAT
    }
  }
  attr {
    key: "shape"
    value {
      shape {
        dim {
          size: 32
        }
      }
    }
  }
  attr {
    key: "shared_name"
    value {
      s: "bnorm_2/beta"
    }
  }
}
node {
  name: "bnorm_2/beta/IsInitialized/VarIsInitializedOp"
  op: "VarIsInitializedOp"
  input: "bnorm_2/beta"
}
node {
  name: "bnorm_2/beta/Assign"
  op: "AssignVariableOp"
  input: "bnorm_2/beta"
  input: "bnorm_2/Const_1"
  attr {
    key: "dtype"
    value {
      type: DT_FLOAT
    }
  }
}
node {
  name: "bnorm_2/beta/Read/ReadVariableOp"
  op: "ReadVariableOp"
  input: "bnorm_2/beta"
  attr {
    key: "dtype"
    value {
      type: DT_FLOAT
    }
  }
}
node {
  name: "bnorm_2/Const_2"
  op: "Const"
  attr {
    key: "dtype"
    value {
      type: DT_FLOAT
    }
  }
  attr {
    key: "value"
    value {
      tensor {
        dtype: DT_FLOAT
        tensor_shape {
          dim {
            size: 32
          }
        }
        float_val: 0.0
      }
    }
  }
}
node {
  name: "bnorm_2/moving_mean"
  op: "VarHandleOp"
  attr {
    key: "_class"
    value {
      list {
        s: "loc:@bnorm_2/moving_mean"
      }
    }
  }
  attr {
    key: "container"
    value {
      s: ""
    }
  }
  attr {
    key: "dtype"
    value {
      type: DT_FLOAT
    }
  }
  attr {
    key: "shape"
    value {
      shape {
        dim {
          size: 32
        }
      }
    }
  }
  attr {
    key: "shared_name"
    value {
      s: "bnorm_2/moving_mean"
    }
  }
}
node {
  name: "bnorm_2/moving_mean/IsInitialized/VarIsInitializedOp"
  op: "VarIsInitializedOp"
  input: "bnorm_2/moving_mean"
}
node {
  name: "bnorm_2/moving_mean/Assign"
  op: "AssignVariableOp"
  input: "bnorm_2/moving_mean"
  input: "bnorm_2/Const_2"
  attr {
    key: "dtype"
    value {
      type: DT_FLOAT
    }
  }
}
node {
  name: "bnorm_2/moving_mean/Read/ReadVariableOp"
  op: "ReadVariableOp"
  input: "bnorm_2/moving_mean"
  attr {
    key: "dtype"
    value {
      type: DT_FLOAT
    }
  }
}
node {
  name: "bnorm_2/Const_3"
  op: "Const"
  attr {
    key: "dtype"
    value {
      type: DT_FLOAT
    }
  }
  attr {
    key: "value"
    value {
      tensor {
        dtype: DT_FLOAT
        tensor_shape {
          dim {
            size: 32
          }
        }
        float_val: 1.0
      }
    }
  }
}
node {
  name: "bnorm_2/moving_variance"
  op: "VarHandleOp"
  attr {
    key: "_class"
    value {
      list {
        s: "loc:@bnorm_2/moving_variance"
      }
    }
  }
  attr {
    key: "container"
    value {
      s: ""
    }
  }
  attr {
    key: "dtype"
    value {
      type: DT_FLOAT
    }
  }
  attr {
    key: "shape"
    value {
      shape {
        dim {
          size: 32
        }
      }
    }
  }
  attr {
    key: "shared_name"
    value {
      s: "bnorm_2/moving_variance"
    }
  }
}
node {
  name: "bnorm_2/moving_variance/IsInitialized/VarIsInitializedOp"
  op: "VarIsInitializedOp"
  input: "bnorm_2/moving_variance"
}
node {
  name: "bnorm_2/moving_variance/Assign"
  op: "AssignVariableOp"
  input: "bnorm_2/moving_variance"
  input: "bnorm_2/Const_3"
  attr {
    key: "dtype"
    value {
      type: DT_FLOAT
    }
  }
}
node {
  name: "bnorm_2/moving_variance/Read/ReadVariableOp"
  op: "ReadVariableOp"
  input: "bnorm_2/moving_variance"
  attr {
    key: "dtype"
    value {
      type: DT_FLOAT
    }
  }
}
node {
  name: "bnorm_2/ReadVariableOp"
  op: "ReadVariableOp"
  input: "bnorm_2/gamma"
  attr {
    key: "dtype"
    value {
      type: DT_FLOAT
    }
  }
}
node {
  name: "bnorm_2/ReadVariableOp_1"
  op: "ReadVariableOp"
  input: "bnorm_2/beta"
  attr {
    key: "dtype"
    value {
      type: DT_FLOAT
    }
  }
}
node {
  name: "bnorm_2/Const_4"
  op: "Const"
  attr {
    key: "dtype"
    value {
      type: DT_FLOAT
    }
  }
  attr {
    key: "value"
    value {
      tensor {
        dtype: DT_FLOAT
        tensor_shape {
          dim {
          }
        }
      }
    }
  }
}
node {
  name: "bnorm_2/Const_5"
  op: "Const"
  attr {
    key: "dtype"
    value {
      type: DT_FLOAT
    }
  }
  attr {
    key: "value"
    value {
      tensor {
        dtype: DT_FLOAT
        tensor_shape {
          dim {
          }
        }
      }
    }
  }
}
node {
  name: "bnorm_2/FusedBatchNormV3"
  op: "FusedBatchNormV3"
  input: "conv_2/convolution"
  input: "bnorm_2/ReadVariableOp"
  input: "bnorm_2/ReadVariableOp_1"
  input: "bnorm_2/Const_4"
  input: "bnorm_2/Const_5"
  attr {
    key: "T"
    value {
      type: DT_FLOAT
    }
  }
  attr {
    key: "U"
    value {
      type: DT_FLOAT
    }
  }
  attr {
    key: "data_format"
    value {
      s: "NHWC"
    }
  }
  attr {
    key: "epsilon"
    value {
      f: 0.0010000000474974513
    }
  }
  attr {
    key: "is_training"
    value {
      b: true
    }
  }
}
node {
  name: "bnorm_2/Shape"
  op: "Shape"
  input: "conv_2/convolution"
  attr {
    key: "T"
    value {
      type: DT_FLOAT
    }
  }
  attr {
    key: "out_type"
    value {
      type: DT_INT32
    }
  }
}
node {
  name: "bnorm_2/strided_slice/stack"
  op: "Const"
  attr {
    key: "dtype"
    value {
      type: DT_INT32
    }
  }
  attr {
    key: "value"
    value {
      tensor {
        dtype: DT_INT32
        tensor_shape {
          dim {
            size: 1
          }
        }
        int_val: 0
      }
    }
  }
}
node {
  name: "bnorm_2/strided_slice/stack_1"
  op: "Const"
  attr {
    key: "dtype"
    value {
      type: DT_INT32
    }
  }
  attr {
    key: "value"
    value {
      tensor {
        dtype: DT_INT32
        tensor_shape {
          dim {
            size: 1
          }
        }
        int_val: 1
      }
    }
  }
}
node {
  name: "bnorm_2/strided_slice/stack_2"
  op: "Const"
  attr {
    key: "dtype"
    value {
      type: DT_INT32
    }
  }
  attr {
    key: "value"
    value {
      tensor {
        dtype: DT_INT32
        tensor_shape {
          dim {
            size: 1
          }
        }
        int_val: 1
      }
    }
  }
}
node {
  name: "bnorm_2/strided_slice"
  op: "StridedSlice"
  input: "bnorm_2/Shape"
  input: "bnorm_2/strided_slice/stack"
  input: "bnorm_2/strided_slice/stack_1"
  input: "bnorm_2/strided_slice/stack_2"
  attr {
    key: "Index"
    value {
      type: DT_INT32
    }
  }
  attr {
    key: "T"
    value {
      type: DT_INT32
    }
  }
  attr {
    key: "begin_mask"
    value {
      i: 0
    }
  }
  attr {
    key: "ellipsis_mask"
    value {
      i: 0
    }
  }
  attr {
    key: "end_mask"
    value {
      i: 0
    }
  }
  attr {
    key: "new_axis_mask"
    value {
      i: 0
    }
  }
  attr {
    key: "shrink_axis_mask"
    value {
      i: 1
    }
  }
}
node {
  name: "bnorm_2/Shape_1"
  op: "Shape"
  input: "conv_2/convolution"
  attr {
    key: "T"
    value {
      type: DT_FLOAT
    }
  }
  attr {
    key: "out_type"
    value {
      type: DT_INT32
    }
  }
}
node {
  name: "bnorm_2/strided_slice_1/stack"
  op: "Const"
  attr {
    key: "dtype"
    value {
      type: DT_INT32
    }
  }
  attr {
    key: "value"
    value {
      tensor {
        dtype: DT_INT32
        tensor_shape {
          dim {
            size: 1
          }
        }
        int_val: 1
      }
    }
  }
}
node {
  name: "bnorm_2/strided_slice_1/stack_1"
  op: "Const"
  attr {
    key: "dtype"
    value {
      type: DT_INT32
    }
  }
  attr {
    key: "value"
    value {
      tensor {
        dtype: DT_INT32
        tensor_shape {
          dim {
            size: 1
          }
        }
        int_val: 2
      }
    }
  }
}
node {
  name: "bnorm_2/strided_slice_1/stack_2"
  op: "Const"
  attr {
    key: "dtype"
    value {
      type: DT_INT32
    }
  }
  attr {
    key: "value"
    value {
      tensor {
        dtype: DT_INT32
        tensor_shape {
          dim {
            size: 1
          }
        }
        int_val: 1
      }
    }
  }
}
node {
  name: "bnorm_2/strided_slice_1"
  op: "StridedSlice"
  input: "bnorm_2/Shape_1"
  input: "bnorm_2/strided_slice_1/stack"
  input: "bnorm_2/strided_slice_1/stack_1"
  input: "bnorm_2/strided_slice_1/stack_2"
  attr {
    key: "Index"
    value {
      type: DT_INT32
    }
  }
  attr {
    key: "T"
    value {
      type: DT_INT32
    }
  }
  attr {
    key: "begin_mask"
    value {
      i: 0
    }
  }
  attr {
    key: "ellipsis_mask"
    value {
      i: 0
    }
  }
  attr {
    key: "end_mask"
    value {
      i: 0
    }
  }
  attr {
    key: "new_axis_mask"
    value {
      i: 0
    }
  }
  attr {
    key: "shrink_axis_mask"
    value {
      i: 1
    }
  }
}
node {
  name: "bnorm_2/Shape_2"
  op: "Shape"
  input: "conv_2/convolution"
  attr {
    key: "T"
    value {
      type: DT_FLOAT
    }
  }
  attr {
    key: "out_type"
    value {
      type: DT_INT32
    }
  }
}
node {
  name: "bnorm_2/strided_slice_2/stack"
  op: "Const"
  attr {
    key: "dtype"
    value {
      type: DT_INT32
    }
  }
  attr {
    key: "value"
    value {
      tensor {
        dtype: DT_INT32
        tensor_shape {
          dim {
            size: 1
          }
        }
        int_val: 2
      }
    }
  }
}
node {
  name: "bnorm_2/strided_slice_2/stack_1"
  op: "Const"
  attr {
    key: "dtype"
    value {
      type: DT_INT32
    }
  }
  attr {
    key: "value"
    value {
      tensor {
        dtype: DT_INT32
        tensor_shape {
          dim {
            size: 1
          }
        }
        int_val: 3
      }
    }
  }
}
node {
  name: "bnorm_2/strided_slice_2/stack_2"
  op: "Const"
  attr {
    key: "dtype"
    value {
      type: DT_INT32
    }
  }
  attr {
    key: "value"
    value {
      tensor {
        dtype: DT_INT32
        tensor_shape {
          dim {
            size: 1
          }
        }
        int_val: 1
      }
    }
  }
}
node {
  name: "bnorm_2/strided_slice_2"
  op: "StridedSlice"
  input: "bnorm_2/Shape_2"
  input: "bnorm_2/strided_slice_2/stack"
  input: "bnorm_2/strided_slice_2/stack_1"
  input: "bnorm_2/strided_slice_2/stack_2"
  attr {
    key: "Index"
    value {
      type: DT_INT32
    }
  }
  attr {
    key: "T"
    value {
      type: DT_INT32
    }
  }
  attr {
    key: "begin_mask"
    value {
      i: 0
    }
  }
  attr {
    key: "ellipsis_mask"
    value {
      i: 0
    }
  }
  attr {
    key: "end_mask"
    value {
      i: 0
    }
  }
  attr {
    key: "new_axis_mask"
    value {
      i: 0
    }
  }
  attr {
    key: "shrink_axis_mask"
    value {
      i: 1
    }
  }
}
node {
  name: "bnorm_2/Rank/packed"
  op: "Pack"
  input: "bnorm_2/strided_slice"
  input: "bnorm_2/strided_slice_1"
  input: "bnorm_2/strided_slice_2"
  attr {
    key: "N"
    value {
      i: 3
    }
  }
  attr {
    key: "T"
    value {
      type: DT_INT32
    }
  }
  attr {
    key: "axis"
    value {
      i: 0
    }
  }
}
node {
  name: "bnorm_2/Rank"
  op: "Const"
  attr {
    key: "dtype"
    value {
      type: DT_INT32
    }
  }
  attr {
    key: "value"
    value {
      tensor {
        dtype: DT_INT32
        tensor_shape {
        }
        int_val: 1
      }
    }
  }
}
node {
  name: "bnorm_2/range/start"
  op: "Const"
  attr {
    key: "dtype"
    value {
      type: DT_INT32
    }
  }
  attr {
    key: "value"
    value {
      tensor {
        dtype: DT_INT32
        tensor_shape {
        }
        int_val: 0
      }
    }
  }
}
node {
  name: "bnorm_2/range/delta"
  op: "Const"
  attr {
    key: "dtype"
    value {
      type: DT_INT32
    }
  }
  attr {
    key: "value"
    value {
      tensor {
        dtype: DT_INT32
        tensor_shape {
        }
        int_val: 1
      }
    }
  }
}
node {
  name: "bnorm_2/range"
  op: "Range"
  input: "bnorm_2/range/start"
  input: "bnorm_2/Rank"
  input: "bnorm_2/range/delta"
  attr {
    key: "Tidx"
    value {
      type: DT_INT32
    }
  }
}
node {
  name: "bnorm_2/Prod/input"
  op: "Pack"
  input: "bnorm_2/strided_slice"
  input: "bnorm_2/strided_slice_1"
  input: "bnorm_2/strided_slice_2"
  attr {
    key: "N"
    value {
      i: 3
    }
  }
  attr {
    key: "T"
    value {
      type: DT_INT32
    }
  }
  attr {
    key: "axis"
    value {
      i: 0
    }
  }
}
node {
  name: "bnorm_2/Prod"
  op: "Prod"
  input: "bnorm_2/Prod/input"
  input: "bnorm_2/range"
  attr {
    key: "T"
    value {
      type: DT_INT32
    }
  }
  attr {
    key: "Tidx"
    value {
      type: DT_INT32
    }
  }
  attr {
    key: "keep_dims"
    value {
      b: false
    }
  }
}
node {
  name: "bnorm_2/Cast"
  op: "Cast"
  input: "bnorm_2/Prod"
  attr {
    key: "DstT"
    value {
      type: DT_FLOAT
    }
  }
  attr {
    key: "SrcT"
    value {
      type: DT_INT32
    }
  }
  attr {
    key: "Truncate"
    value {
      b: false
    }
  }
}
node {
  name: "bnorm_2/sub/y"
  op: "Const"
  attr {
    key: "dtype"
    value {
      type: DT_FLOAT
    }
  }
  attr {
    key: "value"
    value {
      tensor {
        dtype: DT_FLOAT
        tensor_shape {
        }
        float_val: 1.0010000467300415
      }
    }
  }
}
node {
  name: "bnorm_2/sub"
  op: "Sub"
  input: "bnorm_2/Cast"
  input: "bnorm_2/sub/y"
  attr {
    key: "T"
    value {
      type: DT_FLOAT
    }
  }
}
node {
  name: "bnorm_2/truediv"
  op: "RealDiv"
  input: "bnorm_2/Cast"
  input: "bnorm_2/sub"
  attr {
    key: "T"
    value {
      type: DT_FLOAT
    }
  }
}
node {
  name: "bnorm_2/mul"
  op: "Mul"
  input: "bnorm_2/FusedBatchNormV3:2"
  input: "bnorm_2/truediv"
  attr {
    key: "T"
    value {
      type: DT_FLOAT
    }
  }
}
node {
  name: "bnorm_2/Const_6"
  op: "Const"
  attr {
    key: "_class"
    value {
      list {
        s: "loc:@bnorm_2/moving_mean"
      }
    }
  }
  attr {
    key: "dtype"
    value {
      type: DT_FLOAT
    }
  }
  attr {
    key: "value"
    value {
      tensor {
        dtype: DT_FLOAT
        tensor_shape {
        }
        float_val: 0.009999999776482582
      }
    }
  }
}
node {
  name: "bnorm_2/ReadVariableOp_2"
  op: "ReadVariableOp"
  input: "bnorm_2/moving_mean"
  attr {
    key: "dtype"
    value {
      type: DT_FLOAT
    }
  }
}
node {
  name: "bnorm_2/sub_1"
  op: "Sub"
  input: "bnorm_2/ReadVariableOp_2"
  input: "bnorm_2/FusedBatchNormV3:1"
  attr {
    key: "T"
    value {
      type: DT_FLOAT
    }
  }
  attr {
    key: "_class"
    value {
      list {
        s: "loc:@bnorm_2/moving_mean"
      }
    }
  }
}
node {
  name: "bnorm_2/mul_1"
  op: "Mul"
  input: "bnorm_2/sub_1"
  input: "bnorm_2/Const_6"
  attr {
    key: "T"
    value {
      type: DT_FLOAT
    }
  }
  attr {
    key: "_class"
    value {
      list {
        s: "loc:@bnorm_2/moving_mean"
      }
    }
  }
}
node {
  name: "bnorm_2/AssignSubVariableOp"
  op: "AssignSubVariableOp"
  input: "bnorm_2/moving_mean"
  input: "bnorm_2/mul_1"
  attr {
    key: "_class"
    value {
      list {
        s: "loc:@bnorm_2/moving_mean"
      }
    }
  }
  attr {
    key: "dtype"
    value {
      type: DT_FLOAT
    }
  }
}
node {
  name: "bnorm_2/ReadVariableOp_3"
  op: "ReadVariableOp"
  input: "bnorm_2/moving_mean"
  input: "^bnorm_2/AssignSubVariableOp"
  attr {
    key: "_class"
    value {
      list {
        s: "loc:@bnorm_2/moving_mean"
      }
    }
  }
  attr {
    key: "dtype"
    value {
      type: DT_FLOAT
    }
  }
}
node {
  name: "bnorm_2/Const_7"
  op: "Const"
  attr {
    key: "_class"
    value {
      list {
        s: "loc:@bnorm_2/moving_variance"
      }
    }
  }
  attr {
    key: "dtype"
    value {
      type: DT_FLOAT
    }
  }
  attr {
    key: "value"
    value {
      tensor {
        dtype: DT_FLOAT
        tensor_shape {
        }
        float_val: 0.009999999776482582
      }
    }
  }
}
node {
  name: "bnorm_2/ReadVariableOp_4"
  op: "ReadVariableOp"
  input: "bnorm_2/moving_variance"
  attr {
    key: "dtype"
    value {
      type: DT_FLOAT
    }
  }
}
node {
  name: "bnorm_2/sub_2"
  op: "Sub"
  input: "bnorm_2/ReadVariableOp_4"
  input: "bnorm_2/mul"
  attr {
    key: "T"
    value {
      type: DT_FLOAT
    }
  }
  attr {
    key: "_class"
    value {
      list {
        s: "loc:@bnorm_2/moving_variance"
      }
    }
  }
}
node {
  name: "bnorm_2/mul_2"
  op: "Mul"
  input: "bnorm_2/sub_2"
  input: "bnorm_2/Const_7"
  attr {
    key: "T"
    value {
      type: DT_FLOAT
    }
  }
  attr {
    key: "_class"
    value {
      list {
        s: "loc:@bnorm_2/moving_variance"
      }
    }
  }
}
node {
  name: "bnorm_2/AssignSubVariableOp_1"
  op: "AssignSubVariableOp"
  input: "bnorm_2/moving_variance"
  input: "bnorm_2/mul_2"
  attr {
    key: "_class"
    value {
      list {
        s: "loc:@bnorm_2/moving_variance"
      }
    }
  }
  attr {
    key: "dtype"
    value {
      type: DT_FLOAT
    }
  }
}
node {
  name: "bnorm_2/ReadVariableOp_5"
  op: "ReadVariableOp"
  input: "bnorm_2/moving_variance"
  input: "^bnorm_2/AssignSubVariableOp_1"
  attr {
    key: "_class"
    value {
      list {
        s: "loc:@bnorm_2/moving_variance"
      }
    }
  }
  attr {
    key: "dtype"
    value {
      type: DT_FLOAT
    }
  }
}
node {
  name: "bnorm_2/ReadVariableOp_6"
  op: "ReadVariableOp"
  input: "bnorm_2/gamma"
  attr {
    key: "dtype"
    value {
      type: DT_FLOAT
    }
  }
}
node {
  name: "bnorm_2/ReadVariableOp_7"
  op: "ReadVariableOp"
  input: "bnorm_2/beta"
  attr {
    key: "dtype"
    value {
      type: DT_FLOAT
    }
  }
}
node {
  name: "bnorm_2/FusedBatchNormV3_1/ReadVariableOp"
  op: "ReadVariableOp"
  input: "bnorm_2/moving_mean"
  attr {
    key: "dtype"
    value {
      type: DT_FLOAT
    }
  }
}
node {
  name: "bnorm_2/FusedBatchNormV3_1/ReadVariableOp_1"
  op: "ReadVariableOp"
  input: "bnorm_2/moving_variance"
  attr {
    key: "dtype"
    value {
      type: DT_FLOAT
    }
  }
}
node {
  name: "bnorm_2/FusedBatchNormV3_1"
  op: "FusedBatchNormV3"
  input: "conv_2/convolution"
  input: "bnorm_2/ReadVariableOp_6"
  input: "bnorm_2/ReadVariableOp_7"
  input: "bnorm_2/FusedBatchNormV3_1/ReadVariableOp"
  input: "bnorm_2/FusedBatchNormV3_1/ReadVariableOp_1"
  attr {
    key: "T"
    value {
      type: DT_FLOAT
    }
  }
  attr {
    key: "U"
    value {
      type: DT_FLOAT
    }
  }
  attr {
    key: "data_format"
    value {
      s: "NHWC"
    }
  }
  attr {
    key: "epsilon"
    value {
      f: 0.0010000000474974513
    }
  }
  attr {
    key: "is_training"
    value {
      b: false
    }
  }
}
node {
  name: "leaky_2/LeakyRelu"
  op: "LeakyRelu"
  input: "bnorm_2/FusedBatchNormV3_1"
  attr {
    key: "T"
    value {
      type: DT_FLOAT
    }
  }
  attr {
    key: "alpha"
    value {
      f: 0.10000000149011612
    }
  }
}
node {
  name: "conv_3/random_uniform/shape"
  op: "Const"
  attr {
    key: "dtype"
    value {
      type: DT_INT32
    }
  }
  attr {
    key: "value"
    value {
      tensor {
        dtype: DT_INT32
        tensor_shape {
          dim {
            size: 4
          }
        }
        tensor_content: "\003\000\000\000\003\000\000\000 \000\000\000@\000\000\000"
      }
    }
  }
}
node {
  name: "conv_3/random_uniform/min"
  op: "Const"
  attr {
    key: "dtype"
    value {
      type: DT_FLOAT
    }
  }
  attr {
    key: "value"
    value {
      tensor {
        dtype: DT_FLOAT
        tensor_shape {
        }
        float_val: -0.0833333358168602
      }
    }
  }
}
node {
  name: "conv_3/random_uniform/max"
  op: "Const"
  attr {
    key: "dtype"
    value {
      type: DT_FLOAT
    }
  }
  attr {
    key: "value"
    value {
      tensor {
        dtype: DT_FLOAT
        tensor_shape {
        }
        float_val: 0.0833333358168602
      }
    }
  }
}
node {
  name: "conv_3/random_uniform/RandomUniform"
  op: "RandomUniform"
  input: "conv_3/random_uniform/shape"
  attr {
    key: "T"
    value {
      type: DT_INT32
    }
  }
  attr {
    key: "dtype"
    value {
      type: DT_FLOAT
    }
  }
  attr {
    key: "seed"
    value {
      i: 87654321
    }
  }
  attr {
    key: "seed2"
    value {
      i: 3146709
    }
  }
}
node {
  name: "conv_3/random_uniform/sub"
  op: "Sub"
  input: "conv_3/random_uniform/max"
  input: "conv_3/random_uniform/min"
  attr {
    key: "T"
    value {
      type: DT_FLOAT
    }
  }
}
node {
  name: "conv_3/random_uniform/mul"
  op: "Mul"
  input: "conv_3/random_uniform/RandomUniform"
  input: "conv_3/random_uniform/sub"
  attr {
    key: "T"
    value {
      type: DT_FLOAT
    }
  }
}
node {
  name: "conv_3/random_uniform"
  op: "Add"
  input: "conv_3/random_uniform/mul"
  input: "conv_3/random_uniform/min"
  attr {
    key: "T"
    value {
      type: DT_FLOAT
    }
  }
}
node {
  name: "conv_3/kernel"
  op: "VarHandleOp"
  attr {
    key: "_class"
    value {
      list {
        s: "loc:@conv_3/kernel"
      }
    }
  }
  attr {
    key: "container"
    value {
      s: ""
    }
  }
  attr {
    key: "dtype"
    value {
      type: DT_FLOAT
    }
  }
  attr {
    key: "shape"
    value {
      shape {
        dim {
          size: 3
        }
        dim {
          size: 3
        }
        dim {
          size: 32
        }
        dim {
          size: 64
        }
      }
    }
  }
  attr {
    key: "shared_name"
    value {
      s: "conv_3/kernel"
    }
  }
}
node {
  name: "conv_3/kernel/IsInitialized/VarIsInitializedOp"
  op: "VarIsInitializedOp"
  input: "conv_3/kernel"
}
node {
  name: "conv_3/kernel/Assign"
  op: "AssignVariableOp"
  input: "conv_3/kernel"
  input: "conv_3/random_uniform"
  attr {
    key: "dtype"
    value {
      type: DT_FLOAT
    }
  }
}
node {
  name: "conv_3/kernel/Read/ReadVariableOp"
  op: "ReadVariableOp"
  input: "conv_3/kernel"
  attr {
    key: "dtype"
    value {
      type: DT_FLOAT
    }
  }
}
node {
  name: "conv_3/convolution/ReadVariableOp"
  op: "ReadVariableOp"
  input: "conv_3/kernel"
  attr {
    key: "dtype"
    value {
      type: DT_FLOAT
    }
  }
}
node {
  name: "conv_3/convolution"
  op: "Conv2D"
  input: "leaky_2/LeakyRelu"
  input: "conv_3/convolution/ReadVariableOp"
  attr {
    key: "T"
    value {
      type: DT_FLOAT
    }
  }
  attr {
    key: "data_format"
    value {
      s: "NHWC"
    }
  }
  attr {
    key: "dilations"
    value {
      list {
        i: 1
        i: 1
        i: 1
        i: 1
      }
    }
  }
  attr {
    key: "explicit_paddings"
    value {
      list {
      }
    }
  }
  attr {
    key: "padding"
    value {
      s: "SAME"
    }
  }
  attr {
    key: "strides"
    value {
      list {
        i: 1
        i: 1
        i: 1
        i: 1
      }
    }
  }
  attr {
    key: "use_cudnn_on_gpu"
    value {
      b: true
    }
  }
}
node {
  name: "bnorm_3/Const"
  op: "Const"
  attr {
    key: "dtype"
    value {
      type: DT_FLOAT
    }
  }
  attr {
    key: "value"
    value {
      tensor {
        dtype: DT_FLOAT
        tensor_shape {
          dim {
            size: 64
          }
        }
        float_val: 1.0
      }
    }
  }
}
node {
  name: "bnorm_3/gamma"
  op: "VarHandleOp"
  attr {
    key: "_class"
    value {
      list {
        s: "loc:@bnorm_3/gamma"
      }
    }
  }
  attr {
    key: "container"
    value {
      s: ""
    }
  }
  attr {
    key: "dtype"
    value {
      type: DT_FLOAT
    }
  }
  attr {
    key: "shape"
    value {
      shape {
        dim {
          size: 64
        }
      }
    }
  }
  attr {
    key: "shared_name"
    value {
      s: "bnorm_3/gamma"
    }
  }
}
node {
  name: "bnorm_3/gamma/IsInitialized/VarIsInitializedOp"
  op: "VarIsInitializedOp"
  input: "bnorm_3/gamma"
}
node {
  name: "bnorm_3/gamma/Assign"
  op: "AssignVariableOp"
  input: "bnorm_3/gamma"
  input: "bnorm_3/Const"
  attr {
    key: "dtype"
    value {
      type: DT_FLOAT
    }
  }
}
node {
  name: "bnorm_3/gamma/Read/ReadVariableOp"
  op: "ReadVariableOp"
  input: "bnorm_3/gamma"
  attr {
    key: "dtype"
    value {
      type: DT_FLOAT
    }
  }
}
node {
  name: "bnorm_3/Const_1"
  op: "Const"
  attr {
    key: "dtype"
    value {
      type: DT_FLOAT
    }
  }
  attr {
    key: "value"
    value {
      tensor {
        dtype: DT_FLOAT
        tensor_shape {
          dim {
            size: 64
          }
        }
        float_val: 0.0
      }
    }
  }
}
node {
  name: "bnorm_3/beta"
  op: "VarHandleOp"
  attr {
    key: "_class"
    value {
      list {
        s: "loc:@bnorm_3/beta"
      }
    }
  }
  attr {
    key: "container"
    value {
      s: ""
    }
  }
  attr {
    key: "dtype"
    value {
      type: DT_FLOAT
    }
  }
  attr {
    key: "shape"
    value {
      shape {
        dim {
          size: 64
        }
      }
    }
  }
  attr {
    key: "shared_name"
    value {
      s: "bnorm_3/beta"
    }
  }
}
node {
  name: "bnorm_3/beta/IsInitialized/VarIsInitializedOp"
  op: "VarIsInitializedOp"
  input: "bnorm_3/beta"
}
node {
  name: "bnorm_3/beta/Assign"
  op: "AssignVariableOp"
  input: "bnorm_3/beta"
  input: "bnorm_3/Const_1"
  attr {
    key: "dtype"
    value {
      type: DT_FLOAT
    }
  }
}
node {
  name: "bnorm_3/beta/Read/ReadVariableOp"
  op: "ReadVariableOp"
  input: "bnorm_3/beta"
  attr {
    key: "dtype"
    value {
      type: DT_FLOAT
    }
  }
}
node {
  name: "bnorm_3/Const_2"
  op: "Const"
  attr {
    key: "dtype"
    value {
      type: DT_FLOAT
    }
  }
  attr {
    key: "value"
    value {
      tensor {
        dtype: DT_FLOAT
        tensor_shape {
          dim {
            size: 64
          }
        }
        float_val: 0.0
      }
    }
  }
}
node {
  name: "bnorm_3/moving_mean"
  op: "VarHandleOp"
  attr {
    key: "_class"
    value {
      list {
        s: "loc:@bnorm_3/moving_mean"
      }
    }
  }
  attr {
    key: "container"
    value {
      s: ""
    }
  }
  attr {
    key: "dtype"
    value {
      type: DT_FLOAT
    }
  }
  attr {
    key: "shape"
    value {
      shape {
        dim {
          size: 64
        }
      }
    }
  }
  attr {
    key: "shared_name"
    value {
      s: "bnorm_3/moving_mean"
    }
  }
}
node {
  name: "bnorm_3/moving_mean/IsInitialized/VarIsInitializedOp"
  op: "VarIsInitializedOp"
  input: "bnorm_3/moving_mean"
}
node {
  name: "bnorm_3/moving_mean/Assign"
  op: "AssignVariableOp"
  input: "bnorm_3/moving_mean"
  input: "bnorm_3/Const_2"
  attr {
    key: "dtype"
    value {
      type: DT_FLOAT
    }
  }
}
node {
  name: "bnorm_3/moving_mean/Read/ReadVariableOp"
  op: "ReadVariableOp"
  input: "bnorm_3/moving_mean"
  attr {
    key: "dtype"
    value {
      type: DT_FLOAT
    }
  }
}
node {
  name: "bnorm_3/Const_3"
  op: "Const"
  attr {
    key: "dtype"
    value {
      type: DT_FLOAT
    }
  }
  attr {
    key: "value"
    value {
      tensor {
        dtype: DT_FLOAT
        tensor_shape {
          dim {
            size: 64
          }
        }
        float_val: 1.0
      }
    }
  }
}
node {
  name: "bnorm_3/moving_variance"
  op: "VarHandleOp"
  attr {
    key: "_class"
    value {
      list {
        s: "loc:@bnorm_3/moving_variance"
      }
    }
  }
  attr {
    key: "container"
    value {
      s: ""
    }
  }
  attr {
    key: "dtype"
    value {
      type: DT_FLOAT
    }
  }
  attr {
    key: "shape"
    value {
      shape {
        dim {
          size: 64
        }
      }
    }
  }
  attr {
    key: "shared_name"
    value {
      s: "bnorm_3/moving_variance"
    }
  }
}
node {
  name: "bnorm_3/moving_variance/IsInitialized/VarIsInitializedOp"
  op: "VarIsInitializedOp"
  input: "bnorm_3/moving_variance"
}
node {
  name: "bnorm_3/moving_variance/Assign"
  op: "AssignVariableOp"
  input: "bnorm_3/moving_variance"
  input: "bnorm_3/Const_3"
  attr {
    key: "dtype"
    value {
      type: DT_FLOAT
    }
  }
}
node {
  name: "bnorm_3/moving_variance/Read/ReadVariableOp"
  op: "ReadVariableOp"
  input: "bnorm_3/moving_variance"
  attr {
    key: "dtype"
    value {
      type: DT_FLOAT
    }
  }
}
node {
  name: "bnorm_3/ReadVariableOp"
  op: "ReadVariableOp"
  input: "bnorm_3/gamma"
  attr {
    key: "dtype"
    value {
      type: DT_FLOAT
    }
  }
}
node {
  name: "bnorm_3/ReadVariableOp_1"
  op: "ReadVariableOp"
  input: "bnorm_3/beta"
  attr {
    key: "dtype"
    value {
      type: DT_FLOAT
    }
  }
}
node {
  name: "bnorm_3/Const_4"
  op: "Const"
  attr {
    key: "dtype"
    value {
      type: DT_FLOAT
    }
  }
  attr {
    key: "value"
    value {
      tensor {
        dtype: DT_FLOAT
        tensor_shape {
          dim {
          }
        }
      }
    }
  }
}
node {
  name: "bnorm_3/Const_5"
  op: "Const"
  attr {
    key: "dtype"
    value {
      type: DT_FLOAT
    }
  }
  attr {
    key: "value"
    value {
      tensor {
        dtype: DT_FLOAT
        tensor_shape {
          dim {
          }
        }
      }
    }
  }
}
node {
  name: "bnorm_3/FusedBatchNormV3"
  op: "FusedBatchNormV3"
  input: "conv_3/convolution"
  input: "bnorm_3/ReadVariableOp"
  input: "bnorm_3/ReadVariableOp_1"
  input: "bnorm_3/Const_4"
  input: "bnorm_3/Const_5"
  attr {
    key: "T"
    value {
      type: DT_FLOAT
    }
  }
  attr {
    key: "U"
    value {
      type: DT_FLOAT
    }
  }
  attr {
    key: "data_format"
    value {
      s: "NHWC"
    }
  }
  attr {
    key: "epsilon"
    value {
      f: 0.0010000000474974513
    }
  }
  attr {
    key: "is_training"
    value {
      b: true
    }
  }
}
node {
  name: "bnorm_3/Shape"
  op: "Shape"
  input: "conv_3/convolution"
  attr {
    key: "T"
    value {
      type: DT_FLOAT
    }
  }
  attr {
    key: "out_type"
    value {
      type: DT_INT32
    }
  }
}
node {
  name: "bnorm_3/strided_slice/stack"
  op: "Const"
  attr {
    key: "dtype"
    value {
      type: DT_INT32
    }
  }
  attr {
    key: "value"
    value {
      tensor {
        dtype: DT_INT32
        tensor_shape {
          dim {
            size: 1
          }
        }
        int_val: 0
      }
    }
  }
}
node {
  name: "bnorm_3/strided_slice/stack_1"
  op: "Const"
  attr {
    key: "dtype"
    value {
      type: DT_INT32
    }
  }
  attr {
    key: "value"
    value {
      tensor {
        dtype: DT_INT32
        tensor_shape {
          dim {
            size: 1
          }
        }
        int_val: 1
      }
    }
  }
}
node {
  name: "bnorm_3/strided_slice/stack_2"
  op: "Const"
  attr {
    key: "dtype"
    value {
      type: DT_INT32
    }
  }
  attr {
    key: "value"
    value {
      tensor {
        dtype: DT_INT32
        tensor_shape {
          dim {
            size: 1
          }
        }
        int_val: 1
      }
    }
  }
}
node {
  name: "bnorm_3/strided_slice"
  op: "StridedSlice"
  input: "bnorm_3/Shape"
  input: "bnorm_3/strided_slice/stack"
  input: "bnorm_3/strided_slice/stack_1"
  input: "bnorm_3/strided_slice/stack_2"
  attr {
    key: "Index"
    value {
      type: DT_INT32
    }
  }
  attr {
    key: "T"
    value {
      type: DT_INT32
    }
  }
  attr {
    key: "begin_mask"
    value {
      i: 0
    }
  }
  attr {
    key: "ellipsis_mask"
    value {
      i: 0
    }
  }
  attr {
    key: "end_mask"
    value {
      i: 0
    }
  }
  attr {
    key: "new_axis_mask"
    value {
      i: 0
    }
  }
  attr {
    key: "shrink_axis_mask"
    value {
      i: 1
    }
  }
}
node {
  name: "bnorm_3/Shape_1"
  op: "Shape"
  input: "conv_3/convolution"
  attr {
    key: "T"
    value {
      type: DT_FLOAT
    }
  }
  attr {
    key: "out_type"
    value {
      type: DT_INT32
    }
  }
}
node {
  name: "bnorm_3/strided_slice_1/stack"
  op: "Const"
  attr {
    key: "dtype"
    value {
      type: DT_INT32
    }
  }
  attr {
    key: "value"
    value {
      tensor {
        dtype: DT_INT32
        tensor_shape {
          dim {
            size: 1
          }
        }
        int_val: 1
      }
    }
  }
}
node {
  name: "bnorm_3/strided_slice_1/stack_1"
  op: "Const"
  attr {
    key: "dtype"
    value {
      type: DT_INT32
    }
  }
  attr {
    key: "value"
    value {
      tensor {
        dtype: DT_INT32
        tensor_shape {
          dim {
            size: 1
          }
        }
        int_val: 2
      }
    }
  }
}
node {
  name: "bnorm_3/strided_slice_1/stack_2"
  op: "Const"
  attr {
    key: "dtype"
    value {
      type: DT_INT32
    }
  }
  attr {
    key: "value"
    value {
      tensor {
        dtype: DT_INT32
        tensor_shape {
          dim {
            size: 1
          }
        }
        int_val: 1
      }
    }
  }
}
node {
  name: "bnorm_3/strided_slice_1"
  op: "StridedSlice"
  input: "bnorm_3/Shape_1"
  input: "bnorm_3/strided_slice_1/stack"
  input: "bnorm_3/strided_slice_1/stack_1"
  input: "bnorm_3/strided_slice_1/stack_2"
  attr {
    key: "Index"
    value {
      type: DT_INT32
    }
  }
  attr {
    key: "T"
    value {
      type: DT_INT32
    }
  }
  attr {
    key: "begin_mask"
    value {
      i: 0
    }
  }
  attr {
    key: "ellipsis_mask"
    value {
      i: 0
    }
  }
  attr {
    key: "end_mask"
    value {
      i: 0
    }
  }
  attr {
    key: "new_axis_mask"
    value {
      i: 0
    }
  }
  attr {
    key: "shrink_axis_mask"
    value {
      i: 1
    }
  }
}
node {
  name: "bnorm_3/Shape_2"
  op: "Shape"
  input: "conv_3/convolution"
  attr {
    key: "T"
    value {
      type: DT_FLOAT
    }
  }
  attr {
    key: "out_type"
    value {
      type: DT_INT32
    }
  }
}
node {
  name: "bnorm_3/strided_slice_2/stack"
  op: "Const"
  attr {
    key: "dtype"
    value {
      type: DT_INT32
    }
  }
  attr {
    key: "value"
    value {
      tensor {
        dtype: DT_INT32
        tensor_shape {
          dim {
            size: 1
          }
        }
        int_val: 2
      }
    }
  }
}
node {
  name: "bnorm_3/strided_slice_2/stack_1"
  op: "Const"
  attr {
    key: "dtype"
    value {
      type: DT_INT32
    }
  }
  attr {
    key: "value"
    value {
      tensor {
        dtype: DT_INT32
        tensor_shape {
          dim {
            size: 1
          }
        }
        int_val: 3
      }
    }
  }
}
node {
  name: "bnorm_3/strided_slice_2/stack_2"
  op: "Const"
  attr {
    key: "dtype"
    value {
      type: DT_INT32
    }
  }
  attr {
    key: "value"
    value {
      tensor {
        dtype: DT_INT32
        tensor_shape {
          dim {
            size: 1
          }
        }
        int_val: 1
      }
    }
  }
}
node {
  name: "bnorm_3/strided_slice_2"
  op: "StridedSlice"
  input: "bnorm_3/Shape_2"
  input: "bnorm_3/strided_slice_2/stack"
  input: "bnorm_3/strided_slice_2/stack_1"
  input: "bnorm_3/strided_slice_2/stack_2"
  attr {
    key: "Index"
    value {
      type: DT_INT32
    }
  }
  attr {
    key: "T"
    value {
      type: DT_INT32
    }
  }
  attr {
    key: "begin_mask"
    value {
      i: 0
    }
  }
  attr {
    key: "ellipsis_mask"
    value {
      i: 0
    }
  }
  attr {
    key: "end_mask"
    value {
      i: 0
    }
  }
  attr {
    key: "new_axis_mask"
    value {
      i: 0
    }
  }
  attr {
    key: "shrink_axis_mask"
    value {
      i: 1
    }
  }
}
node {
  name: "bnorm_3/Rank/packed"
  op: "Pack"
  input: "bnorm_3/strided_slice"
  input: "bnorm_3/strided_slice_1"
  input: "bnorm_3/strided_slice_2"
  attr {
    key: "N"
    value {
      i: 3
    }
  }
  attr {
    key: "T"
    value {
      type: DT_INT32
    }
  }
  attr {
    key: "axis"
    value {
      i: 0
    }
  }
}
node {
  name: "bnorm_3/Rank"
  op: "Const"
  attr {
    key: "dtype"
    value {
      type: DT_INT32
    }
  }
  attr {
    key: "value"
    value {
      tensor {
        dtype: DT_INT32
        tensor_shape {
        }
        int_val: 1
      }
    }
  }
}
node {
  name: "bnorm_3/range/start"
  op: "Const"
  attr {
    key: "dtype"
    value {
      type: DT_INT32
    }
  }
  attr {
    key: "value"
    value {
      tensor {
        dtype: DT_INT32
        tensor_shape {
        }
        int_val: 0
      }
    }
  }
}
node {
  name: "bnorm_3/range/delta"
  op: "Const"
  attr {
    key: "dtype"
    value {
      type: DT_INT32
    }
  }
  attr {
    key: "value"
    value {
      tensor {
        dtype: DT_INT32
        tensor_shape {
        }
        int_val: 1
      }
    }
  }
}
node {
  name: "bnorm_3/range"
  op: "Range"
  input: "bnorm_3/range/start"
  input: "bnorm_3/Rank"
  input: "bnorm_3/range/delta"
  attr {
    key: "Tidx"
    value {
      type: DT_INT32
    }
  }
}
node {
  name: "bnorm_3/Prod/input"
  op: "Pack"
  input: "bnorm_3/strided_slice"
  input: "bnorm_3/strided_slice_1"
  input: "bnorm_3/strided_slice_2"
  attr {
    key: "N"
    value {
      i: 3
    }
  }
  attr {
    key: "T"
    value {
      type: DT_INT32
    }
  }
  attr {
    key: "axis"
    value {
      i: 0
    }
  }
}
node {
  name: "bnorm_3/Prod"
  op: "Prod"
  input: "bnorm_3/Prod/input"
  input: "bnorm_3/range"
  attr {
    key: "T"
    value {
      type: DT_INT32
    }
  }
  attr {
    key: "Tidx"
    value {
      type: DT_INT32
    }
  }
  attr {
    key: "keep_dims"
    value {
      b: false
    }
  }
}
node {
  name: "bnorm_3/Cast"
  op: "Cast"
  input: "bnorm_3/Prod"
  attr {
    key: "DstT"
    value {
      type: DT_FLOAT
    }
  }
  attr {
    key: "SrcT"
    value {
      type: DT_INT32
    }
  }
  attr {
    key: "Truncate"
    value {
      b: false
    }
  }
}
node {
  name: "bnorm_3/sub/y"
  op: "Const"
  attr {
    key: "dtype"
    value {
      type: DT_FLOAT
    }
  }
  attr {
    key: "value"
    value {
      tensor {
        dtype: DT_FLOAT
        tensor_shape {
        }
        float_val: 1.0010000467300415
      }
    }
  }
}
node {
  name: "bnorm_3/sub"
  op: "Sub"
  input: "bnorm_3/Cast"
  input: "bnorm_3/sub/y"
  attr {
    key: "T"
    value {
      type: DT_FLOAT
    }
  }
}
node {
  name: "bnorm_3/truediv"
  op: "RealDiv"
  input: "bnorm_3/Cast"
  input: "bnorm_3/sub"
  attr {
    key: "T"
    value {
      type: DT_FLOAT
    }
  }
}
node {
  name: "bnorm_3/mul"
  op: "Mul"
  input: "bnorm_3/FusedBatchNormV3:2"
  input: "bnorm_3/truediv"
  attr {
    key: "T"
    value {
      type: DT_FLOAT
    }
  }
}
node {
  name: "bnorm_3/Const_6"
  op: "Const"
  attr {
    key: "_class"
    value {
      list {
        s: "loc:@bnorm_3/moving_mean"
      }
    }
  }
  attr {
    key: "dtype"
    value {
      type: DT_FLOAT
    }
  }
  attr {
    key: "value"
    value {
      tensor {
        dtype: DT_FLOAT
        tensor_shape {
        }
        float_val: 0.009999999776482582
      }
    }
  }
}
node {
  name: "bnorm_3/ReadVariableOp_2"
  op: "ReadVariableOp"
  input: "bnorm_3/moving_mean"
  attr {
    key: "dtype"
    value {
      type: DT_FLOAT
    }
  }
}
node {
  name: "bnorm_3/sub_1"
  op: "Sub"
  input: "bnorm_3/ReadVariableOp_2"
  input: "bnorm_3/FusedBatchNormV3:1"
  attr {
    key: "T"
    value {
      type: DT_FLOAT
    }
  }
  attr {
    key: "_class"
    value {
      list {
        s: "loc:@bnorm_3/moving_mean"
      }
    }
  }
}
node {
  name: "bnorm_3/mul_1"
  op: "Mul"
  input: "bnorm_3/sub_1"
  input: "bnorm_3/Const_6"
  attr {
    key: "T"
    value {
      type: DT_FLOAT
    }
  }
  attr {
    key: "_class"
    value {
      list {
        s: "loc:@bnorm_3/moving_mean"
      }
    }
  }
}
node {
  name: "bnorm_3/AssignSubVariableOp"
  op: "AssignSubVariableOp"
  input: "bnorm_3/moving_mean"
  input: "bnorm_3/mul_1"
  attr {
    key: "_class"
    value {
      list {
        s: "loc:@bnorm_3/moving_mean"
      }
    }
  }
  attr {
    key: "dtype"
    value {
      type: DT_FLOAT
    }
  }
}
node {
  name: "bnorm_3/ReadVariableOp_3"
  op: "ReadVariableOp"
  input: "bnorm_3/moving_mean"
  input: "^bnorm_3/AssignSubVariableOp"
  attr {
    key: "_class"
    value {
      list {
        s: "loc:@bnorm_3/moving_mean"
      }
    }
  }
  attr {
    key: "dtype"
    value {
      type: DT_FLOAT
    }
  }
}
node {
  name: "bnorm_3/Const_7"
  op: "Const"
  attr {
    key: "_class"
    value {
      list {
        s: "loc:@bnorm_3/moving_variance"
      }
    }
  }
  attr {
    key: "dtype"
    value {
      type: DT_FLOAT
    }
  }
  attr {
    key: "value"
    value {
      tensor {
        dtype: DT_FLOAT
        tensor_shape {
        }
        float_val: 0.009999999776482582
      }
    }
  }
}
node {
  name: "bnorm_3/ReadVariableOp_4"
  op: "ReadVariableOp"
  input: "bnorm_3/moving_variance"
  attr {
    key: "dtype"
    value {
      type: DT_FLOAT
    }
  }
}
node {
  name: "bnorm_3/sub_2"
  op: "Sub"
  input: "bnorm_3/ReadVariableOp_4"
  input: "bnorm_3/mul"
  attr {
    key: "T"
    value {
      type: DT_FLOAT
    }
  }
  attr {
    key: "_class"
    value {
      list {
        s: "loc:@bnorm_3/moving_variance"
      }
    }
  }
}
node {
  name: "bnorm_3/mul_2"
  op: "Mul"
  input: "bnorm_3/sub_2"
  input: "bnorm_3/Const_7"
  attr {
    key: "T"
    value {
      type: DT_FLOAT
    }
  }
  attr {
    key: "_class"
    value {
      list {
        s: "loc:@bnorm_3/moving_variance"
      }
    }
  }
}
node {
  name: "bnorm_3/AssignSubVariableOp_1"
  op: "AssignSubVariableOp"
  input: "bnorm_3/moving_variance"
  input: "bnorm_3/mul_2"
  attr {
    key: "_class"
    value {
      list {
        s: "loc:@bnorm_3/moving_variance"
      }
    }
  }
  attr {
    key: "dtype"
    value {
      type: DT_FLOAT
    }
  }
}
node {
  name: "bnorm_3/ReadVariableOp_5"
  op: "ReadVariableOp"
  input: "bnorm_3/moving_variance"
  input: "^bnorm_3/AssignSubVariableOp_1"
  attr {
    key: "_class"
    value {
      list {
        s: "loc:@bnorm_3/moving_variance"
      }
    }
  }
  attr {
    key: "dtype"
    value {
      type: DT_FLOAT
    }
  }
}
node {
  name: "bnorm_3/ReadVariableOp_6"
  op: "ReadVariableOp"
  input: "bnorm_3/gamma"
  attr {
    key: "dtype"
    value {
      type: DT_FLOAT
    }
  }
}
node {
  name: "bnorm_3/ReadVariableOp_7"
  op: "ReadVariableOp"
  input: "bnorm_3/beta"
  attr {
    key: "dtype"
    value {
      type: DT_FLOAT
    }
  }
}
node {
  name: "bnorm_3/FusedBatchNormV3_1/ReadVariableOp"
  op: "ReadVariableOp"
  input: "bnorm_3/moving_mean"
  attr {
    key: "dtype"
    value {
      type: DT_FLOAT
    }
  }
}
node {
  name: "bnorm_3/FusedBatchNormV3_1/ReadVariableOp_1"
  op: "ReadVariableOp"
  input: "bnorm_3/moving_variance"
  attr {
    key: "dtype"
    value {
      type: DT_FLOAT
    }
  }
}
node {
  name: "bnorm_3/FusedBatchNormV3_1"
  op: "FusedBatchNormV3"
  input: "conv_3/convolution"
  input: "bnorm_3/ReadVariableOp_6"
  input: "bnorm_3/ReadVariableOp_7"
  input: "bnorm_3/FusedBatchNormV3_1/ReadVariableOp"
  input: "bnorm_3/FusedBatchNormV3_1/ReadVariableOp_1"
  attr {
    key: "T"
    value {
      type: DT_FLOAT
    }
  }
  attr {
    key: "U"
    value {
      type: DT_FLOAT
    }
  }
  attr {
    key: "data_format"
    value {
      s: "NHWC"
    }
  }
  attr {
    key: "epsilon"
    value {
      f: 0.0010000000474974513
    }
  }
  attr {
    key: "is_training"
    value {
      b: false
    }
  }
}
node {
  name: "leaky_3/LeakyRelu"
  op: "LeakyRelu"
  input: "bnorm_3/FusedBatchNormV3_1"
  attr {
    key: "T"
    value {
      type: DT_FLOAT
    }
  }
  attr {
    key: "alpha"
    value {
      f: 0.10000000149011612
    }
  }
}
node {
  name: "add_1/add"
  op: "AddV2"
  input: "leaky_1/LeakyRelu"
  input: "leaky_3/LeakyRelu"
  attr {
    key: "T"
    value {
      type: DT_FLOAT
    }
  }
}
node {
  name: "zero_padding2d_2/Pad/paddings"
  op: "Const"
  attr {
    key: "dtype"
    value {
      type: DT_INT32
    }
  }
  attr {
    key: "value"
    value {
      tensor {
        dtype: DT_INT32
        tensor_shape {
          dim {
            size: 4
          }
          dim {
            size: 2
          }
        }
        tensor_content: "…"
      }
    }
  }
}
node {
  name: "zero_padding2d_2/Pad"
  op: "Pad"
  input: "add_1/add"
  input: "zero_padding2d_2/Pad/paddings"
  attr {
    key: "T"
    value {
      type: DT_FLOAT
    }
  }
  attr {
    key: "Tpaddings"
    value {
      type: DT_INT32
    }
  }
}
node {
  name: "conv_5/random_uniform/shape"
  op: "Const"
  attr {
    key: "dtype"
    value {
      type: DT_INT32
    }
  }
  attr {
    key: "value"
    value {
      tensor {
        dtype: DT_INT32
        tensor_shape {
          dim {
            size: 4
          }
        }
        tensor_content: "\003\000\000\000\003\000\000\000@\000\000\000\200\000\000\000"
      }
    }
  }
}
node {
  name: "conv_5/random_uniform/min"
  op: "Const"
  attr {
    key: "dtype"
    value {
      type: DT_FLOAT
    }
  }
  attr {
    key: "value"
    value {
      tensor {
        dtype: DT_FLOAT
        tensor_shape {
        }
        float_val: -0.0589255653321743
      }
    }
  }
}
node {
  name: "conv_5/random_uniform/max"
  op: "Const"
  attr {
    key: "dtype"
    value {
      type: DT_FLOAT
    }
  }
  attr {
    key: "value"
    value {
      tensor {
        dtype: DT_FLOAT
        tensor_shape {
        }
        float_val: 0.0589255653321743
      }
    }
  }
}
node {
  name: "conv_5/random_uniform/RandomUniform"
  op: "RandomUniform"
  input: "conv_5/random_uniform/shape"
  attr {
    key: "T"
    value {
      type: DT_INT32
    }
  }
  attr {
    key: "dtype"
    value {
      type: DT_FLOAT
    }
  }
  attr {
    key: "seed"
    value {
      i: 87654321
    }
  }
  attr {
    key: "seed2"
    value {
      i: 6562658
    }
  }
}
node {
  name: "conv_5/random_uniform/sub"
  op: "Sub"
  input: "conv_5/random_uniform/max"
  input: "conv_5/random_uniform/min"
  attr {
    key: "T"
    value {
      type: DT_FLOAT
    }
  }
}
node {
  name: "conv_5/random_uniform/mul"
  op: "Mul"
  input: "conv_5/random_uniform/RandomUniform"
  input: "conv_5/random_uniform/sub"
  attr {
    key: "T"
    value {
      type: DT_FLOAT
    }
  }
}
node {
  name: "conv_5/random_uniform"
  op: "Add"
  input: "conv_5/random_uniform/mul"
  input: "conv_5/random_uniform/min"
  attr {
    key: "T"
    value {
      type: DT_FLOAT
    }
  }
}
node {
  name: "conv_5/kernel"
  op: "VarHandleOp"
  attr {
    key: "_class"
    value {
      list {
        s: "loc:@conv_5/kernel"
      }
    }
  }
  attr {
    key: "container"
    value {
      s: ""
    }
  }
  attr {
    key: "dtype"
    value {
      type: DT_FLOAT
    }
  }
  attr {
    key: "shape"
    value {
      shape {
        dim {
          size: 3
        }
        dim {
          size: 3
        }
        dim {
          size: 64
        }
        dim {
          size: 128
        }
      }
    }
  }
  attr {
    key: "shared_name"
    value {
      s: "conv_5/kernel"
    }
  }
}
node {
  name: "conv_5/kernel/IsInitialized/VarIsInitializedOp"
  op: "VarIsInitializedOp"
  input: "conv_5/kernel"
}
node {
  name: "conv_5/kernel/Assign"
  op: "AssignVariableOp"
  input: "conv_5/kernel"
  input: "conv_5/random_uniform"
  attr {
    key: "dtype"
    value {
      type: DT_FLOAT
    }
  }
}
node {
  name: "conv_5/kernel/Read/ReadVariableOp"
  op: "ReadVariableOp"
  input: "conv_5/kernel"
  attr {
    key: "dtype"
    value {
      type: DT_FLOAT
    }
  }
}
node {
  name: "conv_5/convolution/ReadVariableOp"
  op: "ReadVariableOp"
  input: "conv_5/kernel"
  attr {
    key: "dtype"
    value {
      type: DT_FLOAT
    }
  }
}
node {
  name: "conv_5/convolution"
  op: "Conv2D"
  input: "zero_padding2d_2/Pad"
  input: "conv_5/convolution/ReadVariableOp"
  attr {
    key: "T"
    value {
      type: DT_FLOAT
    }
  }
  attr {
    key: "data_format"
    value {
      s: "NHWC"
    }
  }
  attr {
    key: "dilations"
    value {
      list {
        i: 1
        i: 1
        i: 1
        i: 1
      }
    }
  }
  attr {
    key: "explicit_paddings"
    value {
      list {
      }
    }
  }
  attr {
    key: "padding"
    value {
      s: "VALID"
    }
  }
  attr {
    key: "strides"
    value {
      list {
        i: 1
        i: 2
        i: 2
        i: 1
      }
    }
  }
  attr {
    key: "use_cudnn_on_gpu"
    value {
      b: true
    }
  }
}
node {
  name: "bnorm_5/Const"
  op: "Const"
  attr {
    key: "dtype"
    value {
      type: DT_FLOAT
    }
  }
  attr {
    key: "value"
    value {
      tensor {
        dtype: DT_FLOAT
        tensor_shape {
          dim {
            size: 128
          }
        }
        float_val: 1.0
      }
    }
  }
}
node {
  name: "bnorm_5/gamma"
  op: "VarHandleOp"
  attr {
    key: "_class"
    value {
      list {
        s: "loc:@bnorm_5/gamma"
      }
    }
  }
  attr {
    key: "container"
    value {
      s: ""
    }
  }
  attr {
    key: "dtype"
    value {
      type: DT_FLOAT
    }
  }
  attr {
    key: "shape"
    value {
      shape {
        dim {
          size: 128
        }
      }
    }
  }
  attr {
    key: "shared_name"
    value {
      s: "bnorm_5/gamma"
    }
  }
}
node {
  name: "bnorm_5/gamma/IsInitialized/VarIsInitializedOp"
  op: "VarIsInitializedOp"
  input: "bnorm_5/gamma"
}
node {
  name: "bnorm_5/gamma/Assign"
  op: "AssignVariableOp"
  input: "bnorm_5/gamma"
  input: "bnorm_5/Const"
  attr {
    key: "dtype"
    value {
      type: DT_FLOAT
    }
  }
}
node {
  name: "bnorm_5/gamma/Read/ReadVariableOp"
  op: "ReadVariableOp"
  input: "bnorm_5/gamma"
  attr {
    key: "dtype"
    value {
      type: DT_FLOAT
    }
  }
}
node {
  name: "bnorm_5/Const_1"
  op: "Const"
  attr {
    key: "dtype"
    value {
      type: DT_FLOAT
    }
  }
  attr {
    key: "value"
    value {
      tensor {
        dtype: DT_FLOAT
        tensor_shape {
          dim {
            size: 128
          }
        }
        float_val: 0.0
      }
    }
  }
}
node {
  name: "bnorm_5/beta"
  op: "VarHandleOp"
  attr {
    key: "_class"
    value {
      list {
        s: "loc:@bnorm_5/beta"
      }
    }
  }
  attr {
    key: "container"
    value {
      s: ""
    }
  }
  attr {
    key: "dtype"
    value {
      type: DT_FLOAT
    }
  }
  attr {
    key: "shape"
    value {
      shape {
        dim {
          size: 128
        }
      }
    }
  }
  attr {
    key: "shared_name"
    value {
      s: "bnorm_5/beta"
    }
  }
}
node {
  name: "bnorm_5/beta/IsInitialized/VarIsInitializedOp"
  op: "VarIsInitializedOp"
  input: "bnorm_5/beta"
}
node {
  name: "bnorm_5/beta/Assign"
  op: "AssignVariableOp"
  input: "bnorm_5/beta"
  input: "bnorm_5/Const_1"
  attr {
    key: "dtype"
    value {
      type: DT_FLOAT
    }
  }
}
node {
  name: "bnorm_5/beta/Read/ReadVariableOp"
  op: "ReadVariableOp"
  input: "bnorm_5/beta"
  attr {
    key: "dtype"
    value {
      type: DT_FLOAT
    }
  }
}
node {
  name: "bnorm_5/Const_2"
  op: "Const"
  attr {
    key: "dtype"
    value {
      type: DT_FLOAT
    }
  }
  attr {
    key: "value"
    value {
      tensor {
        dtype: DT_FLOAT
        tensor_shape {
          dim {
            size: 128
          }
        }
        float_val: 0.0
      }
    }
  }
}
node {
  name: "bnorm_5/moving_mean"
  op: "VarHandleOp"
  attr {
    key: "_class"
    value {
      list {
        s: "loc:@bnorm_5/moving_mean"
      }
    }
  }
  attr {
    key: "container"
    value {
      s: ""
    }
  }
  attr {
    key: "dtype"
    value {
      type: DT_FLOAT
    }
  }
  attr {
    key: "shape"
    value {
      shape {
        dim {
          size: 128
        }
      }
    }
  }
  attr {
    key: "shared_name"
    value {
      s: "bnorm_5/moving_mean"
    }
  }
}
node {
  name: "bnorm_5/moving_mean/IsInitialized/VarIsInitializedOp"
  op: "VarIsInitializedOp"
  input: "bnorm_5/moving_mean"
}
node {
  name: "bnorm_5/moving_mean/Assign"
  op: "AssignVariableOp"
  input: "bnorm_5/moving_mean"
  input: "bnorm_5/Const_2"
  attr {
    key: "dtype"
    value {
      type: DT_FLOAT
    }
  }
}
node {
  name: "bnorm_5/moving_mean/Read/ReadVariableOp"
  op: "ReadVariableOp"
  input: "bnorm_5/moving_mean"
  attr {
    key: "dtype"
    value {
      type: DT_FLOAT
    }
  }
}
node {
  name: "bnorm_5/Const_3"
  op: "Const"
  attr {
    key: "dtype"
    value {
      type: DT_FLOAT
    }
  }
  attr {
    key: "value"
    value {
      tensor {
        dtype: DT_FLOAT
        tensor_shape {
          dim {
            size: 128
          }
        }
        float_val: 1.0
      }
    }
  }
}
node {
  name: "bnorm_5/moving_variance"
  op: "VarHandleOp"
  attr {
    key: "_class"
    value {
      list {
        s: "loc:@bnorm_5/moving_variance"
      }
    }
  }
  attr {
    key: "container"
    value {
      s: ""
    }
  }
  attr {
    key: "dtype"
    value {
      type: DT_FLOAT
    }
  }
  attr {
    key: "shape"
    value {
      shape {
        dim {
          size: 128
        }
      }
    }
  }
  attr {
    key: "shared_name"
    value {
      s: "bnorm_5/moving_variance"
    }
  }
}
node {
  name: "bnorm_5/moving_variance/IsInitialized/VarIsInitializedOp"
  op: "VarIsInitializedOp"
  input: "bnorm_5/moving_variance"
}
node {
  name: "bnorm_5/moving_variance/Assign"
  op: "AssignVariableOp"
  input: "bnorm_5/moving_variance"
  input: "bnorm_5/Const_3"
  attr {
    key: "dtype"
    value {
      type: DT_FLOAT
    }
  }
}
node {
  name: "bnorm_5/moving_variance/Read/ReadVariableOp"
  op: "ReadVariableOp"
  input: "bnorm_5/moving_variance"
  attr {
    key: "dtype"
    value {
      type: DT_FLOAT
    }
  }
}
node {
  name: "bnorm_5/ReadVariableOp"
  op: "ReadVariableOp"
  input: "bnorm_5/gamma"
  attr {
    key: "dtype"
    value {
      type: DT_FLOAT
    }
  }
}
node {
  name: "bnorm_5/ReadVariableOp_1"
  op: "ReadVariableOp"
  input: "bnorm_5/beta"
  attr {
    key: "dtype"
    value {
      type: DT_FLOAT
    }
  }
}
node {
  name: "bnorm_5/Const_4"
  op: "Const"
  attr {
    key: "dtype"
    value {
      type: DT_FLOAT
    }
  }
  attr {
    key: "value"
    value {
      tensor {
        dtype: DT_FLOAT
        tensor_shape {
          dim {
          }
        }
      }
    }
  }
}
node {
  name: "bnorm_5/Const_5"
  op: "Const"
  attr {
    key: "dtype"
    value {
      type: DT_FLOAT
    }
  }
  attr {
    key: "value"
    value {
      tensor {
        dtype: DT_FLOAT
        tensor_shape {
          dim {
          }
        }
      }
    }
  }
}
node {
  name: "bnorm_5/FusedBatchNormV3"
  op: "FusedBatchNormV3"
  input: "conv_5/convolution"
  input: "bnorm_5/ReadVariableOp"
  input: "bnorm_5/ReadVariableOp_1"
  input: "bnorm_5/Const_4"
  input: "bnorm_5/Const_5"
  attr {
    key: "T"
    value {
      type: DT_FLOAT
    }
  }
  attr {
    key: "U"
    value {
      type: DT_FLOAT
    }
  }
  attr {
    key: "data_format"
    value {
      s: "NHWC"
    }
  }
  attr {
    key: "epsilon"
    value {
      f: 0.0010000000474974513
    }
  }
  attr {
    key: "is_training"
    value {
      b: true
    }
  }
}
node {
  name: "bnorm_5/Shape"
  op: "Shape"
  input: "conv_5/convolution"
  attr {
    key: "T"
    value {
      type: DT_FLOAT
    }
  }
  attr {
    key: "out_type"
    value {
      type: DT_INT32
    }
  }
}
node {
  name: "bnorm_5/strided_slice/stack"
  op: "Const"
  attr {
    key: "dtype"
    value {
      type: DT_INT32
    }
  }
  attr {
    key: "value"
    value {
      tensor {
        dtype: DT_INT32
        tensor_shape {
          dim {
            size: 1
          }
        }
        int_val: 0
      }
    }
  }
}
node {
  name: "bnorm_5/strided_slice/stack_1"
  op: "Const"
  attr {
    key: "dtype"
    value {
      type: DT_INT32
    }
  }
  attr {
    key: "value"
    value {
      tensor {
        dtype: DT_INT32
        tensor_shape {
          dim {
            size: 1
          }
        }
        int_val: 1
      }
    }
  }
}
node {
  name: "bnorm_5/strided_slice/stack_2"
  op: "Const"
  attr {
    key: "dtype"
    value {
      type: DT_INT32
    }
  }
  attr {
    key: "value"
    value {
      tensor {
        dtype: DT_INT32
        tensor_shape {
          dim {
            size: 1
          }
        }
        int_val: 1
      }
    }
  }
}
node {
  name: "bnorm_5/strided_slice"
  op: "StridedSlice"
  input: "bnorm_5/Shape"
  input: "bnorm_5/strided_slice/stack"
  input: "bnorm_5/strided_slice/stack_1"
  input: "bnorm_5/strided_slice/stack_2"
  attr {
    key: "Index"
    value {
      type: DT_INT32
    }
  }
  attr {
    key: "T"
    value {
      type: DT_INT32
    }
  }
  attr {
    key: "begin_mask"
    value {
      i: 0
    }
  }
  attr {
    key: "ellipsis_mask"
    value {
      i: 0
    }
  }
  attr {
    key: "end_mask"
    value {
      i: 0
    }
  }
  attr {
    key: "new_axis_mask"
    value {
      i: 0
    }
  }
  attr {
    key: "shrink_axis_mask"
    value {
      i: 1
    }
  }
}
node {
  name: "bnorm_5/Shape_1"
  op: "Shape"
  input: "conv_5/convolution"
  attr {
    key: "T"
    value {
      type: DT_FLOAT
    }
  }
  attr {
    key: "out_type"
    value {
      type: DT_INT32
    }
  }
}
node {
  name: "bnorm_5/strided_slice_1/stack"
  op: "Const"
  attr {
    key: "dtype"
    value {
      type: DT_INT32
    }
  }
  attr {
    key: "value"
    value {
      tensor {
        dtype: DT_INT32
        tensor_shape {
          dim {
            size: 1
          }
        }
        int_val: 1
      }
    }
  }
}
node {
  name: "bnorm_5/strided_slice_1/stack_1"
  op: "Const"
  attr {
    key: "dtype"
    value {
      type: DT_INT32
    }
  }
  attr {
    key: "value"
    value {
      tensor {
        dtype: DT_INT32
        tensor_shape {
          dim {
            size: 1
          }
        }
        int_val: 2
      }
    }
  }
}
node {
  name: "bnorm_5/strided_slice_1/stack_2"
  op: "Const"
  attr {
    key: "dtype"
    value {
      type: DT_INT32
    }
  }
  attr {
    key: "value"
    value {
      tensor {
        dtype: DT_INT32
        tensor_shape {
          dim {
            size: 1
          }
        }
        int_val: 1
      }
    }
  }
}
node {
  name: "bnorm_5/strided_slice_1"
  op: "StridedSlice"
  input: "bnorm_5/Shape_1"
  input: "bnorm_5/strided_slice_1/stack"
  input: "bnorm_5/strided_slice_1/stack_1"
  input: "bnorm_5/strided_slice_1/stack_2"
  attr {
    key: "Index"
    value {
      type: DT_INT32
    }
  }
  attr {
    key: "T"
    value {
      type: DT_INT32
    }
  }
  attr {
    key: "begin_mask"
    value {
      i: 0
    }
  }
  attr {
    key: "ellipsis_mask"
    value {
      i: 0
    }
  }
  attr {
    key: "end_mask"
    value {
      i: 0
    }
  }
  attr {
    key: "new_axis_mask"
    value {
      i: 0
    }
  }
  attr {
    key: "shrink_axis_mask"
    value {
      i: 1
    }
  }
}
node {
  name: "bnorm_5/Shape_2"
  op: "Shape"
  input: "conv_5/convolution"
  attr {
    key: "T"
    value {
      type: DT_FLOAT
    }
  }
  attr {
    key: "out_type"
    value {
      type: DT_INT32
    }
  }
}
node {
  name: "bnorm_5/strided_slice_2/stack"
  op: "Const"
  attr {
    key: "dtype"
    value {
      type: DT_INT32
    }
  }
  attr {
    key: "value"
    value {
      tensor {
        dtype: DT_INT32
        tensor_shape {
          dim {
            size: 1
          }
        }
        int_val: 2
      }
    }
  }
}
node {
  name: "bnorm_5/strided_slice_2/stack_1"
  op: "Const"
  attr {
    key: "dtype"
    value {
      type: DT_INT32
    }
  }
  attr {
    key: "value"
    value {
      tensor {
        dtype: DT_INT32
        tensor_shape {
          dim {
            size: 1
          }
        }
        int_val: 3
      }
    }
  }
}
node {
  name: "bnorm_5/strided_slice_2/stack_2"
  op: "Const"
  attr {
    key: "dtype"
    value {
      type: DT_INT32
    }
  }
  attr {
    key: "value"
    value {
      tensor {
        dtype: DT_INT32
        tensor_shape {
          dim {
            size: 1
          }
        }
        int_val: 1
      }
    }
  }
}
node {
  name: "bnorm_5/strided_slice_2"
  op: "StridedSlice"
  input: "bnorm_5/Shape_2"
  input: "bnorm_5/strided_slice_2/stack"
  input: "bnorm_5/strided_slice_2/stack_1"
  input: "bnorm_5/strided_slice_2/stack_2"
  attr {
    key: "Index"
    value {
      type: DT_INT32
    }
  }
  attr {
    key: "T"
    value {
      type: DT_INT32
    }
  }
  attr {
    key: "begin_mask"
    value {
      i: 0
    }
  }
  attr {
    key: "ellipsis_mask"
    value {
      i: 0
    }
  }
  attr {
    key: "end_mask"
    value {
      i: 0
    }
  }
  attr {
    key: "new_axis_mask"
    value {
      i: 0
    }
  }
  attr {
    key: "shrink_axis_mask"
    value {
      i: 1
    }
  }
}
node {
  name: "bnorm_5/Rank/packed"
  op: "Pack"
  input: "bnorm_5/strided_slice"
  input: "bnorm_5/strided_slice_1"
  input: "bnorm_5/strided_slice_2"
  attr {
    key: "N"
    value {
      i: 3
    }
  }
  attr {
    key: "T"
    value {
      type: DT_INT32
    }
  }
  attr {
    key: "axis"
    value {
      i: 0
    }
  }
}
node {
  name: "bnorm_5/Rank"
  op: "Const"
  attr {
    key: "dtype"
    value {
      type: DT_INT32
    }
  }
  attr {
    key: "value"
    value {
      tensor {
        dtype: DT_INT32
        tensor_shape {
        }
        int_val: 1
      }
    }
  }
}
node {
  name: "bnorm_5/range/start"
  op: "Const"
  attr {
    key: "dtype"
    value {
      type: DT_INT32
    }
  }
  attr {
    key: "value"
    value {
      tensor {
        dtype: DT_INT32
        tensor_shape {
        }
        int_val: 0
      }
    }
  }
}
node {
  name: "bnorm_5/range/delta"
  op: "Const"
  attr {
    key: "dtype"
    value {
      type: DT_INT32
    }
  }
  attr {
    key: "value"
    value {
      tensor {
        dtype: DT_INT32
        tensor_shape {
        }
        int_val: 1
      }
    }
  }
}
node {
  name: "bnorm_5/range"
  op: "Range"
  input: "bnorm_5/range/start"
  input: "bnorm_5/Rank"
  input: "bnorm_5/range/delta"
  attr {
    key: "Tidx"
    value {
      type: DT_INT32
    }
  }
}
node {
  name: "bnorm_5/Prod/input"
  op: "Pack"
  input: "bnorm_5/strided_slice"
  input: "bnorm_5/strided_slice_1"
  input: "bnorm_5/strided_slice_2"
  attr {
    key: "N"
    value {
      i: 3
    }
  }
  attr {
    key: "T"
    value {
      type: DT_INT32
    }
  }
  attr {
    key: "axis"
    value {
      i: 0
    }
  }
}
node {
  name: "bnorm_5/Prod"
  op: "Prod"
  input: "bnorm_5/Prod/input"
  input: "bnorm_5/range"
  attr {
    key: "T"
    value {
      type: DT_INT32
    }
  }
  attr {
    key: "Tidx"
    value {
      type: DT_INT32
    }
  }
  attr {
    key: "keep_dims"
    value {
      b: false
    }
  }
}
node {
  name: "bnorm_5/Cast"
  op: "Cast"
  input: "bnorm_5/Prod"
  attr {
    key: "DstT"
    value {
      type: DT_FLOAT
    }
  }
  attr {
    key: "SrcT"
    value {
      type: DT_INT32
    }
  }
  attr {
    key: "Truncate"
    value {
      b: false
    }
  }
}
node {
  name: "bnorm_5/sub/y"
  op: "Const"
  attr {
    key: "dtype"
    value {
      type: DT_FLOAT
    }
  }
  attr {
    key: "value"
    value {
      tensor {
        dtype: DT_FLOAT
        tensor_shape {
        }
        float_val: 1.0010000467300415
      }
    }
  }
}
node {
  name: "bnorm_5/sub"
  op: "Sub"
  input: "bnorm_5/Cast"
  input: "bnorm_5/sub/y"
  attr {
    key: "T"
    value {
      type: DT_FLOAT
    }
  }
}
node {
  name: "bnorm_5/truediv"
  op: "RealDiv"
  input: "bnorm_5/Cast"
  input: "bnorm_5/sub"
  attr {
    key: "T"
    value {
      type: DT_FLOAT
    }
  }
}
node {
  name: "bnorm_5/mul"
  op: "Mul"
  input: "bnorm_5/FusedBatchNormV3:2"
  input: "bnorm_5/truediv"
  attr {
    key: "T"
    value {
      type: DT_FLOAT
    }
  }
}
node {
  name: "bnorm_5/Const_6"
  op: "Const"
  attr {
    key: "_class"
    value {
      list {
        s: "loc:@bnorm_5/moving_mean"
      }
    }
  }
  attr {
    key: "dtype"
    value {
      type: DT_FLOAT
    }
  }
  attr {
    key: "value"
    value {
      tensor {
        dtype: DT_FLOAT
        tensor_shape {
        }
        float_val: 0.009999999776482582
      }
    }
  }
}
node {
  name: "bnorm_5/ReadVariableOp_2"
  op: "ReadVariableOp"
  input: "bnorm_5/moving_mean"
  attr {
    key: "dtype"
    value {
      type: DT_FLOAT
    }
  }
}
node {
  name: "bnorm_5/sub_1"
  op: "Sub"
  input: "bnorm_5/ReadVariableOp_2"
  input: "bnorm_5/FusedBatchNormV3:1"
  attr {
    key: "T"
    value {
      type: DT_FLOAT
    }
  }
  attr {
    key: "_class"
    value {
      list {
        s: "loc:@bnorm_5/moving_mean"
      }
    }
  }
}
node {
  name: "bnorm_5/mul_1"
  op: "Mul"
  input: "bnorm_5/sub_1"
  input: "bnorm_5/Const_6"
  attr {
    key: "T"
    value {
      type: DT_FLOAT
    }
  }
  attr {
    key: "_class"
    value {
      list {
        s: "loc:@bnorm_5/moving_mean"
      }
    }
  }
}
node {
  name: "bnorm_5/AssignSubVariableOp"
  op: "AssignSubVariableOp"
  input: "bnorm_5/moving_mean"
  input: "bnorm_5/mul_1"
  attr {
    key: "_class"
    value {
      list {
        s: "loc:@bnorm_5/moving_mean"
      }
    }
  }
  attr {
    key: "dtype"
    value {
      type: DT_FLOAT
    }
  }
}
node {
  name: "bnorm_5/ReadVariableOp_3"
  op: "ReadVariableOp"
  input: "bnorm_5/moving_mean"
  input: "^bnorm_5/AssignSubVariableOp"
  attr {
    key: "_class"
    value {
      list {
        s: "loc:@bnorm_5/moving_mean"
      }
    }
  }
  attr {
    key: "dtype"
    value {
      type: DT_FLOAT
    }
  }
}
node {
  name: "bnorm_5/Const_7"
  op: "Const"
  attr {
    key: "_class"
    value {
      list {
        s: "loc:@bnorm_5/moving_variance"
      }
    }
  }
  attr {
    key: "dtype"
    value {
      type: DT_FLOAT
    }
  }
  attr {
    key: "value"
    value {
      tensor {
        dtype: DT_FLOAT
        tensor_shape {
        }
        float_val: 0.009999999776482582
      }
    }
  }
}
node {
  name: "bnorm_5/ReadVariableOp_4"
  op: "ReadVariableOp"
  input: "bnorm_5/moving_variance"
  attr {
    key: "dtype"
    value {
      type: DT_FLOAT
    }
  }
}
node {
  name: "bnorm_5/sub_2"
  op: "Sub"
  input: "bnorm_5/ReadVariableOp_4"
  input: "bnorm_5/mul"
  attr {
    key: "T"
    value {
      type: DT_FLOAT
    }
  }
  attr {
    key: "_class"
    value {
      list {
        s: "loc:@bnorm_5/moving_variance"
      }
    }
  }
}
node {
  name: "bnorm_5/mul_2"
  op: "Mul"
  input: "bnorm_5/sub_2"
  input: "bnorm_5/Const_7"
  attr {
    key: "T"
    value {
      type: DT_FLOAT
    }
  }
  attr {
    key: "_class"
    value {
      list {
        s: "loc:@bnorm_5/moving_variance"
      }
    }
  }
}
node {
  name: "bnorm_5/AssignSubVariableOp_1"
  op: "AssignSubVariableOp"
  input: "bnorm_5/moving_variance"
  input: "bnorm_5/mul_2"
  attr {
    key: "_class"
    value {
      list {
        s: "loc:@bnorm_5/moving_variance"
      }
    }
  }
  attr {
    key: "dtype"
    value {
      type: DT_FLOAT
    }
  }
}
node {
  name: "bnorm_5/ReadVariableOp_5"
  op: "ReadVariableOp"
  input: "bnorm_5/moving_variance"
  input: "^bnorm_5/AssignSubVariableOp_1"
  attr {
    key: "_class"
    value {
      list {
        s: "loc:@bnorm_5/moving_variance"
      }
    }
  }
  attr {
    key: "dtype"
    value {
      type: DT_FLOAT
    }
  }
}
node {
  name: "bnorm_5/ReadVariableOp_6"
  op: "ReadVariableOp"
  input: "bnorm_5/gamma"
  attr {
    key: "dtype"
    value {
      type: DT_FLOAT
    }
  }
}
node {
  name: "bnorm_5/ReadVariableOp_7"
  op: "ReadVariableOp"
  input: "bnorm_5/beta"
  attr {
    key: "dtype"
    value {
      type: DT_FLOAT
    }
  }
}
node {
  name: "bnorm_5/FusedBatchNormV3_1/ReadVariableOp"
  op: "ReadVariableOp"
  input: "bnorm_5/moving_mean"
  attr {
    key: "dtype"
    value {
      type: DT_FLOAT
    }
  }
}
node {
  name: "bnorm_5/FusedBatchNormV3_1/ReadVariableOp_1"
  op: "ReadVariableOp"
  input: "bnorm_5/moving_variance"
  attr {
    key: "dtype"
    value {
      type: DT_FLOAT
    }
  }
}
node {
  name: "bnorm_5/FusedBatchNormV3_1"
  op: "FusedBatchNormV3"
  input: "conv_5/convolution"
  input: "bnorm_5/ReadVariableOp_6"
  input: "bnorm_5/ReadVariableOp_7"
  input: "bnorm_5/FusedBatchNormV3_1/ReadVariableOp"
  input: "bnorm_5/FusedBatchNormV3_1/ReadVariableOp_1"
  attr {
    key: "T"
    value {
      type: DT_FLOAT
    }
  }
  attr {
    key: "U"
    value {
      type: DT_FLOAT
    }
  }
  attr {
    key: "data_format"
    value {
      s: "NHWC"
    }
  }
  attr {
    key: "epsilon"
    value {
      f: 0.0010000000474974513
    }
  }
  attr {
    key: "is_training"
    value {
      b: false
    }
  }
}
node {
  name: "leaky_5/LeakyRelu"
  op: "LeakyRelu"
  input: "bnorm_5/FusedBatchNormV3_1"
  attr {
    key: "T"
    value {
      type: DT_FLOAT
    }
  }
  attr {
    key: "alpha"
    value {
      f: 0.10000000149011612
    }
  }
}
node {
  name: "conv_6/random_uniform/shape"
  op: "Const"
  attr {
    key: "dtype"
    value {
      type: DT_INT32
    }
  }
  attr {
    key: "value"
    value {
      tensor {
        dtype: DT_INT32
        tensor_shape {
          dim {
            size: 4
          }
        }
        tensor_content: "\001\000\000\000\001\000\000\000\200\000\000\000@\000\000\000"
      }
    }
  }
}
node {
  name: "conv_6/random_uniform/min"
  op: "Const"
  attr {
    key: "dtype"
    value {
      type: DT_FLOAT
    }
  }
  attr {
    key: "value"
    value {
      tensor {
        dtype: DT_FLOAT
        tensor_shape {
        }
        float_val: -0.1767766922712326
      }
    }
  }
}
node {
  name: "conv_6/random_uniform/max"
  op: "Const"
  attr {
    key: "dtype"
    value {
      type: DT_FLOAT
    }
  }
  attr {
    key: "value"
    value {
      tensor {
        dtype: DT_FLOAT
        tensor_shape {
        }
        float_val: 0.1767766922712326
      }
    }
  }
}
node {
  name: "conv_6/random_uniform/RandomUniform"
  op: "RandomUniform"
  input: "conv_6/random_uniform/shape"
  attr {
    key: "T"
    value {
      type: DT_INT32
    }
  }
  attr {
    key: "dtype"
    value {
      type: DT_FLOAT
    }
  }
  attr {
    key: "seed"
    value {
      i: 87654321
    }
  }
  attr {
    key: "seed2"
    value {
      i: 4600344
    }
  }
}
node {
  name: "conv_6/random_uniform/sub"
  op: "Sub"
  input: "conv_6/random_uniform/max"
  input: "conv_6/random_uniform/min"
  attr {
    key: "T"
    value {
      type: DT_FLOAT
    }
  }
}
node {
  name: "conv_6/random_uniform/mul"
  op: "Mul"
  input: "conv_6/random_uniform/RandomUniform"
  input: "conv_6/random_uniform/sub"
  attr {
    key: "T"
    value {
      type: DT_FLOAT
    }
  }
}
node {
  name: "conv_6/random_uniform"
  op: "Add"
  input: "conv_6/random_uniform/mul"
  input: "conv_6/random_uniform/min"
  attr {
    key: "T"
    value {
      type: DT_FLOAT
    }
  }
}
node {
  name: "conv_6/kernel"
  op: "VarHandleOp"
  attr {
    key: "_class"
    value {
      list {
        s: "loc:@conv_6/kernel"
      }
    }
  }
  attr {
    key: "container"
    value {
      s: ""
    }
  }
  attr {
    key: "dtype"
    value {
      type: DT_FLOAT
    }
  }
  attr {
    key: "shape"
    value {
      shape {
        dim {
          size: 1
        }
        dim {
          size: 1
        }
        dim {
          size: 128
        }
        dim {
          size: 64
        }
      }
    }
  }
  attr {
    key: "shared_name"
    value {
      s: "conv_6/kernel"
    }
  }
}
node {
  name: "conv_6/kernel/IsInitialized/VarIsInitializedOp"
  op: "VarIsInitializedOp"
  input: "conv_6/kernel"
}
node {
  name: "conv_6/kernel/Assign"
  op: "AssignVariableOp"
  input: "conv_6/kernel"
  input: "conv_6/random_uniform"
  attr {
    key: "dtype"
    value {
      type: DT_FLOAT
    }
  }
}
node {
  name: "conv_6/kernel/Read/ReadVariableOp"
  op: "ReadVariableOp"
  input: "conv_6/kernel"
  attr {
    key: "dtype"
    value {
      type: DT_FLOAT
    }
  }
}
node {
  name: "conv_6/convolution/ReadVariableOp"
  op: "ReadVariableOp"
  input: "conv_6/kernel"
  attr {
    key: "dtype"
    value {
      type: DT_FLOAT
    }
  }
}
node {
  name: "conv_6/convolution"
  op: "Conv2D"
  input: "leaky_5/LeakyRelu"
  input: "conv_6/convolution/ReadVariableOp"
  attr {
    key: "T"
    value {
      type: DT_FLOAT
    }
  }
  attr {
    key: "data_format"
    value {
      s: "NHWC"
    }
  }
  attr {
    key: "dilations"
    value {
      list {
        i: 1
        i: 1
        i: 1
        i: 1
      }
    }
  }
  attr {
    key: "explicit_paddings"
    value {
      list {
      }
    }
  }
  attr {
    key: "padding"
    value {
      s: "SAME"
    }
  }
  attr {
    key: "strides"
    value {
      list {
        i: 1
        i: 1
        i: 1
        i: 1
      }
    }
  }
  attr {
    key: "use_cudnn_on_gpu"
    value {
      b: true
    }
  }
}
node {
  name: "bnorm_6/Const"
  op: "Const"
  attr {
    key: "dtype"
    value {
      type: DT_FLOAT
    }
  }
  attr {
    key: "value"
    value {
      tensor {
        dtype: DT_FLOAT
        tensor_shape {
          dim {
            size: 64
          }
        }
        float_val: 1.0
      }
    }
  }
}
node {
  name: "bnorm_6/gamma"
  op: "VarHandleOp"
  attr {
    key: "_class"
    value {
      list {
        s: "loc:@bnorm_6/gamma"
      }
    }
  }
  attr {
    key: "container"
    value {
      s: ""
    }
  }
  attr {
    key: "dtype"
    value {
      type: DT_FLOAT
    }
  }
  attr {
    key: "shape"
    value {
      shape {
        dim {
          size: 64
        }
      }
    }
  }
  attr {
    key: "shared_name"
    value {
      s: "bnorm_6/gamma"
    }
  }
}
node {
  name: "bnorm_6/gamma/IsInitialized/VarIsInitializedOp"
  op: "VarIsInitializedOp"
  input: "bnorm_6/gamma"
}
node {
  name: "bnorm_6/gamma/Assign"
  op: "AssignVariableOp"
  input: "bnorm_6/gamma"
  input: "bnorm_6/Const"
  attr {
    key: "dtype"
    value {
      type: DT_FLOAT
    }
  }
}
node {
  name: "bnorm_6/gamma/Read/ReadVariableOp"
  op: "ReadVariableOp"
  input: "bnorm_6/gamma"
  attr {
    key: "dtype"
    value {
      type: DT_FLOAT
    }
  }
}
node {
  name: "bnorm_6/Const_1"
  op: "Const"
  attr {
    key: "dtype"
    value {
      type: DT_FLOAT
    }
  }
  attr {
    key: "value"
    value {
      tensor {
        dtype: DT_FLOAT
        tensor_shape {
          dim {
            size: 64
          }
        }
        float_val: 0.0
      }
    }
  }
}
node {
  name: "bnorm_6/beta"
  op: "VarHandleOp"
  attr {
    key: "_class"
    value {
      list {
        s: "loc:@bnorm_6/beta"
      }
    }
  }
  attr {
    key: "container"
    value {
      s: ""
    }
  }
  attr {
    key: "dtype"
    value {
      type: DT_FLOAT
    }
  }
  attr {
    key: "shape"
    value {
      shape {
        dim {
          size: 64
        }
      }
    }
  }
  attr {
    key: "shared_name"
    value {
      s: "bnorm_6/beta"
    }
  }
}
node {
  name: "bnorm_6/beta/IsInitialized/VarIsInitializedOp"
  op: "VarIsInitializedOp"
  input: "bnorm_6/beta"
}
node {
  name: "bnorm_6/beta/Assign"
  op: "AssignVariableOp"
  input: "bnorm_6/beta"
  input: "bnorm_6/Const_1"
  attr {
    key: "dtype"
    value {
      type: DT_FLOAT
    }
  }
}
node {
  name: "bnorm_6/beta/Read/ReadVariableOp"
  op: "ReadVariableOp"
  input: "bnorm_6/beta"
  attr {
    key: "dtype"
    value {
      type: DT_FLOAT
    }
  }
}
node {
  name: "bnorm_6/Const_2"
  op: "Const"
  attr {
    key: "dtype"
    value {
      type: DT_FLOAT
    }
  }
  attr {
    key: "value"
    value {
      tensor {
        dtype: DT_FLOAT
        tensor_shape {
          dim {
            size: 64
          }
        }
        float_val: 0.0
      }
    }
  }
}
node {
  name: "bnorm_6/moving_mean"
  op: "VarHandleOp"
  attr {
    key: "_class"
    value {
      list {
        s: "loc:@bnorm_6/moving_mean"
      }
    }
  }
  attr {
    key: "container"
    value {
      s: ""
    }
  }
  attr {
    key: "dtype"
    value {
      type: DT_FLOAT
    }
  }
  attr {
    key: "shape"
    value {
      shape {
        dim {
          size: 64
        }
      }
    }
  }
  attr {
    key: "shared_name"
    value {
      s: "bnorm_6/moving_mean"
    }
  }
}
node {
  name: "bnorm_6/moving_mean/IsInitialized/VarIsInitializedOp"
  op: "VarIsInitializedOp"
  input: "bnorm_6/moving_mean"
}
node {
  name: "bnorm_6/moving_mean/Assign"
  op: "AssignVariableOp"
  input: "bnorm_6/moving_mean"
  input: "bnorm_6/Const_2"
  attr {
    key: "dtype"
    value {
      type: DT_FLOAT
    }
  }
}
node {
  name: "bnorm_6/moving_mean/Read/ReadVariableOp"
  op: "ReadVariableOp"
  input: "bnorm_6/moving_mean"
  attr {
    key: "dtype"
    value {
      type: DT_FLOAT
    }
  }
}
node {
  name: "bnorm_6/Const_3"
  op: "Const"
  attr {
    key: "dtype"
    value {
      type: DT_FLOAT
    }
  }
  attr {
    key: "value"
    value {
      tensor {
        dtype: DT_FLOAT
        tensor_shape {
          dim {
            size: 64
          }
        }
        float_val: 1.0
      }
    }
  }
}
node {
  name: "bnorm_6/moving_variance"
  op: "VarHandleOp"
  attr {
    key: "_class"
    value {
      list {
        s: "loc:@bnorm_6/moving_variance"
      }
    }
  }
  attr {
    key: "container"
    value {
      s: ""
    }
  }
  attr {
    key: "dtype"
    value {
      type: DT_FLOAT
    }
  }
  attr {
    key: "shape"
    value {
      shape {
        dim {
          size: 64
        }
      }
    }
  }
  attr {
    key: "shared_name"
    value {
      s: "bnorm_6/moving_variance"
    }
  }
}
node {
  name: "bnorm_6/moving_variance/IsInitialized/VarIsInitializedOp"
  op: "VarIsInitializedOp"
  input: "bnorm_6/moving_variance"
}
node {
  name: "bnorm_6/moving_variance/Assign"
  op: "AssignVariableOp"
  input: "bnorm_6/moving_variance"
  input: "bnorm_6/Const_3"
  attr {
    key: "dtype"
    value {
      type: DT_FLOAT
    }
  }
}
node {
  name: "bnorm_6/moving_variance/Read/ReadVariableOp"
  op: "ReadVariableOp"
  input: "bnorm_6/moving_variance"
  attr {
    key: "dtype"
    value {
      type: DT_FLOAT
    }
  }
}
node {
  name: "bnorm_6/ReadVariableOp"
  op: "ReadVariableOp"
  input: "bnorm_6/gamma"
  attr {
    key: "dtype"
    value {
      type: DT_FLOAT
    }
  }
}
node {
  name: "bnorm_6/ReadVariableOp_1"
  op: "ReadVariableOp"
  input: "bnorm_6/beta"
  attr {
    key: "dtype"
    value {
      type: DT_FLOAT
    }
  }
}
node {
  name: "bnorm_6/Const_4"
  op: "Const"
  attr {
    key: "dtype"
    value {
      type: DT_FLOAT
    }
  }
  attr {
    key: "value"
    value {
      tensor {
        dtype: DT_FLOAT
        tensor_shape {
          dim {
          }
        }
      }
    }
  }
}
node {
  name: "bnorm_6/Const_5"
  op: "Const"
  attr {
    key: "dtype"
    value {
      type: DT_FLOAT
    }
  }
  attr {
    key: "value"
    value {
      tensor {
        dtype: DT_FLOAT
        tensor_shape {
          dim {
          }
        }
      }
    }
  }
}
node {
  name: "bnorm_6/FusedBatchNormV3"
  op: "FusedBatchNormV3"
  input: "conv_6/convolution"
  input: "bnorm_6/ReadVariableOp"
  input: "bnorm_6/ReadVariableOp_1"
  input: "bnorm_6/Const_4"
  input: "bnorm_6/Const_5"
  attr {
    key: "T"
    value {
      type: DT_FLOAT
    }
  }
  attr {
    key: "U"
    value {
      type: DT_FLOAT
    }
  }
  attr {
    key: "data_format"
    value {
      s: "NHWC"
    }
  }
  attr {
    key: "epsilon"
    value {
      f: 0.0010000000474974513
    }
  }
  attr {
    key: "is_training"
    value {
      b: true
    }
  }
}
node {
  name: "bnorm_6/Shape"
  op: "Shape"
  input: "conv_6/convolution"
  attr {
    key: "T"
    value {
      type: DT_FLOAT
    }
  }
  attr {
    key: "out_type"
    value {
      type: DT_INT32
    }
  }
}
node {
  name: "bnorm_6/strided_slice/stack"
  op: "Const"
  attr {
    key: "dtype"
    value {
      type: DT_INT32
    }
  }
  attr {
    key: "value"
    value {
      tensor {
        dtype: DT_INT32
        tensor_shape {
          dim {
            size: 1
          }
        }
        int_val: 0
      }
    }
  }
}
node {
  name: "bnorm_6/strided_slice/stack_1"
  op: "Const"
  attr {
    key: "dtype"
    value {
      type: DT_INT32
    }
  }
  attr {
    key: "value"
    value {
      tensor {
        dtype: DT_INT32
        tensor_shape {
          dim {
            size: 1
          }
        }
        int_val: 1
      }
    }
  }
}
node {
  name: "bnorm_6/strided_slice/stack_2"
  op: "Const"
  attr {
    key: "dtype"
    value {
      type: DT_INT32
    }
  }
  attr {
    key: "value"
    value {
      tensor {
        dtype: DT_INT32
        tensor_shape {
          dim {
            size: 1
          }
        }
        int_val: 1
      }
    }
  }
}
node {
  name: "bnorm_6/strided_slice"
  op: "StridedSlice"
  input: "bnorm_6/Shape"
  input: "bnorm_6/strided_slice/stack"
  input: "bnorm_6/strided_slice/stack_1"
  input: "bnorm_6/strided_slice/stack_2"
  attr {
    key: "Index"
    value {
      type: DT_INT32
    }
  }
  attr {
    key: "T"
    value {
      type: DT_INT32
    }
  }
  attr {
    key: "begin_mask"
    value {
      i: 0
    }
  }
  attr {
    key: "ellipsis_mask"
    value {
      i: 0
    }
  }
  attr {
    key: "end_mask"
    value {
      i: 0
    }
  }
  attr {
    key: "new_axis_mask"
    value {
      i: 0
    }
  }
  attr {
    key: "shrink_axis_mask"
    value {
      i: 1
    }
  }
}
node {
  name: "bnorm_6/Shape_1"
  op: "Shape"
  input: "conv_6/convolution"
  attr {
    key: "T"
    value {
      type: DT_FLOAT
    }
  }
  attr {
    key: "out_type"
    value {
      type: DT_INT32
    }
  }
}
node {
  name: "bnorm_6/strided_slice_1/stack"
  op: "Const"
  attr {
    key: "dtype"
    value {
      type: DT_INT32
    }
  }
  attr {
    key: "value"
    value {
      tensor {
        dtype: DT_INT32
        tensor_shape {
          dim {
            size: 1
          }
        }
        int_val: 1
      }
    }
  }
}
node {
  name: "bnorm_6/strided_slice_1/stack_1"
  op: "Const"
  attr {
    key: "dtype"
    value {
      type: DT_INT32
    }
  }
  attr {
    key: "value"
    value {
      tensor {
        dtype: DT_INT32
        tensor_shape {
          dim {
            size: 1
          }
        }
        int_val: 2
      }
    }
  }
}
node {
  name: "bnorm_6/strided_slice_1/stack_2"
  op: "Const"
  attr {
    key: "dtype"
    value {
      type: DT_INT32
    }
  }
  attr {
    key: "value"
    value {
      tensor {
        dtype: DT_INT32
        tensor_shape {
          dim {
            size: 1
          }
        }
        int_val: 1
      }
    }
  }
}
node {
  name: "bnorm_6/strided_slice_1"
  op: "StridedSlice"
  input: "bnorm_6/Shape_1"
  input: "bnorm_6/strided_slice_1/stack"
  input: "bnorm_6/strided_slice_1/stack_1"
  input: "bnorm_6/strided_slice_1/stack_2"
  attr {
    key: "Index"
    value {
      type: DT_INT32
    }
  }
  attr {
    key: "T"
    value {
      type: DT_INT32
    }
  }
  attr {
    key: "begin_mask"
    value {
      i: 0
    }
  }
  attr {
    key: "ellipsis_mask"
    value {
      i: 0
    }
  }
  attr {
    key: "end_mask"
    value {
      i: 0
    }
  }
  attr {
    key: "new_axis_mask"
    value {
      i: 0
    }
  }
  attr {
    key: "shrink_axis_mask"
    value {
      i: 1
    }
  }
}
node {
  name: "bnorm_6/Shape_2"
  op: "Shape"
  input: "conv_6/convolution"
  attr {
    key: "T"
    value {
      type: DT_FLOAT
    }
  }
  attr {
    key: "out_type"
    value {
      type: DT_INT32
    }
  }
}
node {
  name: "bnorm_6/strided_slice_2/stack"
  op: "Const"
  attr {
    key: "dtype"
    value {
      type: DT_INT32
    }
  }
  attr {
    key: "value"
    value {
      tensor {
        dtype: DT_INT32
        tensor_shape {
          dim {
            size: 1
          }
        }
        int_val: 2
      }
    }
  }
}
node {
  name: "bnorm_6/strided_slice_2/stack_1"
  op: "Const"
  attr {
    key: "dtype"
    value {
      type: DT_INT32
    }
  }
  attr {
    key: "value"
    value {
      tensor {
        dtype: DT_INT32
        tensor_shape {
          dim {
            size: 1
          }
        }
        int_val: 3
      }
    }
  }
}
node {
  name: "bnorm_6/strided_slice_2/stack_2"
  op: "Const"
  attr {
    key: "dtype"
    value {
      type: DT_INT32
    }
  }
  attr {
    key: "value"
    value {
      tensor {
        dtype: DT_INT32
        tensor_shape {
          dim {
            size: 1
          }
        }
        int_val: 1
      }
    }
  }
}
node {
  name: "bnorm_6/strided_slice_2"
  op: "StridedSlice"
  input: "bnorm_6/Shape_2"
  input: "bnorm_6/strided_slice_2/stack"
  input: "bnorm_6/strided_slice_2/stack_1"
  input: "bnorm_6/strided_slice_2/stack_2"
  attr {
    key: "Index"
    value {
      type: DT_INT32
    }
  }
  attr {
    key: "T"
    value {
      type: DT_INT32
    }
  }
  attr {
    key: "begin_mask"
    value {
      i: 0
    }
  }
  attr {
    key: "ellipsis_mask"
    value {
      i: 0
    }
  }
  attr {
    key: "end_mask"
    value {
      i: 0
    }
  }
  attr {
    key: "new_axis_mask"
    value {
      i: 0
    }
  }
  attr {
    key: "shrink_axis_mask"
    value {
      i: 1
    }
  }
}
node {
  name: "bnorm_6/Rank/packed"
  op: "Pack"
  input: "bnorm_6/strided_slice"
  input: "bnorm_6/strided_slice_1"
  input: "bnorm_6/strided_slice_2"
  attr {
    key: "N"
    value {
      i: 3
    }
  }
  attr {
    key: "T"
    value {
      type: DT_INT32
    }
  }
  attr {
    key: "axis"
    value {
      i: 0
    }
  }
}
node {
  name: "bnorm_6/Rank"
  op: "Const"
  attr {
    key: "dtype"
    value {
      type: DT_INT32
    }
  }
  attr {
    key: "value"
    value {
      tensor {
        dtype: DT_INT32
        tensor_shape {
        }
        int_val: 1
      }
    }
  }
}
node {
  name: "bnorm_6/range/start"
  op: "Const"
  attr {
    key: "dtype"
    value {
      type: DT_INT32
    }
  }
  attr {
    key: "value"
    value {
      tensor {
        dtype: DT_INT32
        tensor_shape {
        }
        int_val: 0
      }
    }
  }
}
node {
  name: "bnorm_6/range/delta"
  op: "Const"
  attr {
    key: "dtype"
    value {
      type: DT_INT32
    }
  }
  attr {
    key: "value"
    value {
      tensor {
        dtype: DT_INT32
        tensor_shape {
        }
        int_val: 1
      }
    }
  }
}
node {
  name: "bnorm_6/range"
  op: "Range"
  input: "bnorm_6/range/start"
  input: "bnorm_6/Rank"
  input: "bnorm_6/range/delta"
  attr {
    key: "Tidx"
    value {
      type: DT_INT32
    }
  }
}
node {
  name: "bnorm_6/Prod/input"
  op: "Pack"
  input: "bnorm_6/strided_slice"
  input: "bnorm_6/strided_slice_1"
  input: "bnorm_6/strided_slice_2"
  attr {
    key: "N"
    value {
      i: 3
    }
  }
  attr {
    key: "T"
    value {
      type: DT_INT32
    }
  }
  attr {
    key: "axis"
    value {
      i: 0
    }
  }
}
node {
  name: "bnorm_6/Prod"
  op: "Prod"
  input: "bnorm_6/Prod/input"
  input: "bnorm_6/range"
  attr {
    key: "T"
    value {
      type: DT_INT32
    }
  }
  attr {
    key: "Tidx"
    value {
      type: DT_INT32
    }
  }
  attr {
    key: "keep_dims"
    value {
      b: false
    }
  }
}
node {
  name: "bnorm_6/Cast"
  op: "Cast"
  input: "bnorm_6/Prod"
  attr {
    key: "DstT"
    value {
      type: DT_FLOAT
    }
  }
  attr {
    key: "SrcT"
    value {
      type: DT_INT32
    }
  }
  attr {
    key: "Truncate"
    value {
      b: false
    }
  }
}
node {
  name: "bnorm_6/sub/y"
  op: "Const"
  attr {
    key: "dtype"
    value {
      type: DT_FLOAT
    }
  }
  attr {
    key: "value"
    value {
      tensor {
        dtype: DT_FLOAT
        tensor_shape {
        }
        float_val: 1.0010000467300415
      }
    }
  }
}
node {
  name: "bnorm_6/sub"
  op: "Sub"
  input: "bnorm_6/Cast"
  input: "bnorm_6/sub/y"
  attr {
    key: "T"
    value {
      type: DT_FLOAT
    }
  }
}
node {
  name: "bnorm_6/truediv"
  op: "RealDiv"
  input: "bnorm_6/Cast"
  input: "bnorm_6/sub"
  attr {
    key: "T"
    value {
      type: DT_FLOAT
    }
  }
}
node {
  name: "bnorm_6/mul"
  op: "Mul"
  input: "bnorm_6/FusedBatchNormV3:2"
  input: "bnorm_6/truediv"
  attr {
    key: "T"
    value {
      type: DT_FLOAT
    }
  }
}
node {
  name: "bnorm_6/Const_6"
  op: "Const"
  attr {
    key: "_class"
    value {
      list {
        s: "loc:@bnorm_6/moving_mean"
      }
    }
  }
  attr {
    key: "dtype"
    value {
      type: DT_FLOAT
    }
  }
  attr {
    key: "value"
    value {
      tensor {
        dtype: DT_FLOAT
        tensor_shape {
        }
        float_val: 0.009999999776482582
      }
    }
  }
}
node {
  name: "bnorm_6/ReadVariableOp_2"
  op: "ReadVariableOp"
  input: "bnorm_6/moving_mean"
  attr {
    key: "dtype"
    value {
      type: DT_FLOAT
    }
  }
}
node {
  name: "bnorm_6/sub_1"
  op: "Sub"
  input: "bnorm_6/ReadVariableOp_2"
  input: "bnorm_6/FusedBatchNormV3:1"
  attr {
    key: "T"
    value {
      type: DT_FLOAT
    }
  }
  attr {
    key: "_class"
    value {
      list {
        s: "loc:@bnorm_6/moving_mean"
      }
    }
  }
}
node {
  name: "bnorm_6/mul_1"
  op: "Mul"
  input: "bnorm_6/sub_1"
  input: "bnorm_6/Const_6"
  attr {
    key: "T"
    value {
      type: DT_FLOAT
    }
  }
  attr {
    key: "_class"
    value {
      list {
        s: "loc:@bnorm_6/moving_mean"
      }
    }
  }
}
node {
  name: "bnorm_6/AssignSubVariableOp"
  op: "AssignSubVariableOp"
  input: "bnorm_6/moving_mean"
  input: "bnorm_6/mul_1"
  attr {
    key: "_class"
    value {
      list {
        s: "loc:@bnorm_6/moving_mean"
      }
    }
  }
  attr {
    key: "dtype"
    value {
      type: DT_FLOAT
    }
  }
}
node {
  name: "bnorm_6/ReadVariableOp_3"
  op: "ReadVariableOp"
  input: "bnorm_6/moving_mean"
  input: "^bnorm_6/AssignSubVariableOp"
  attr {
    key: "_class"
    value {
      list {
        s: "loc:@bnorm_6/moving_mean"
      }
    }
  }
  attr {
    key: "dtype"
    value {
      type: DT_FLOAT
    }
  }
}
node {
  name: "bnorm_6/Const_7"
  op: "Const"
  attr {
    key: "_class"
    value {
      list {
        s: "loc:@bnorm_6/moving_variance"
      }
    }
  }
  attr {
    key: "dtype"
    value {
      type: DT_FLOAT
    }
  }
  attr {
    key: "value"
    value {
      tensor {
        dtype: DT_FLOAT
        tensor_shape {
        }
        float_val: 0.009999999776482582
      }
    }
  }
}
node {
  name: "bnorm_6/ReadVariableOp_4"
  op: "ReadVariableOp"
  input: "bnorm_6/moving_variance"
  attr {
    key: "dtype"
    value {
      type: DT_FLOAT
    }
  }
}
node {
  name: "bnorm_6/sub_2"
  op: "Sub"
  input: "bnorm_6/ReadVariableOp_4"
  input: "bnorm_6/mul"
  attr {
    key: "T"
    value {
      type: DT_FLOAT
    }
  }
  attr {
    key: "_class"
    value {
      list {
        s: "loc:@bnorm_6/moving_variance"
      }
    }
  }
}
node {
  name: "bnorm_6/mul_2"
  op: "Mul"
  input: "bnorm_6/sub_2"
  input: "bnorm_6/Const_7"
  attr {
    key: "T"
    value {
      type: DT_FLOAT
    }
  }
  attr {
    key: "_class"
    value {
      list {
        s: "loc:@bnorm_6/moving_variance"
      }
    }
  }
}
node {
  name: "bnorm_6/AssignSubVariableOp_1"
  op: "AssignSubVariableOp"
  input: "bnorm_6/moving_variance"
  input: "bnorm_6/mul_2"
  attr {
    key: "_class"
    value {
      list {
        s: "loc:@bnorm_6/moving_variance"
      }
    }
  }
  attr {
    key: "dtype"
    value {
      type: DT_FLOAT
    }
  }
}
node {
  name: "bnorm_6/ReadVariableOp_5"
  op: "ReadVariableOp"
  input: "bnorm_6/moving_variance"
  input: "^bnorm_6/AssignSubVariableOp_1"
  attr {
    key: "_class"
    value {
      list {
        s: "loc:@bnorm_6/moving_variance"
      }
    }
  }
  attr {
    key: "dtype"
    value {
      type: DT_FLOAT
    }
  }
}
node {
  name: "bnorm_6/ReadVariableOp_6"
  op: "ReadVariableOp"
  input: "bnorm_6/gamma"
  attr {
    key: "dtype"
    value {
      type: DT_FLOAT
    }
  }
}
node {
  name: "bnorm_6/ReadVariableOp_7"
  op: "ReadVariableOp"
  input: "bnorm_6/beta"
  attr {
    key: "dtype"
    value {
      type: DT_FLOAT
    }
  }
}
node {
  name: "bnorm_6/FusedBatchNormV3_1/ReadVariableOp"
  op: "ReadVariableOp"
  input: "bnorm_6/moving_mean"
  attr {
    key: "dtype"
    value {
      type: DT_FLOAT
    }
  }
}
node {
  name: "bnorm_6/FusedBatchNormV3_1/ReadVariableOp_1"
  op: "ReadVariableOp"
  input: "bnorm_6/moving_variance"
  attr {
    key: "dtype"
    value {
      type: DT_FLOAT
    }
  }
}
node {
  name: "bnorm_6/FusedBatchNormV3_1"
  op: "FusedBatchNormV3"
  input: "conv_6/convolution"
  input: "bnorm_6/ReadVariableOp_6"
  input: "bnorm_6/ReadVariableOp_7"
  input: "bnorm_6/FusedBatchNormV3_1/ReadVariableOp"
  input: "bnorm_6/FusedBatchNormV3_1/ReadVariableOp_1"
  attr {
    key: "T"
    value {
      type: DT_FLOAT
    }
  }
  attr {
    key: "U"
    value {
      type: DT_FLOAT
    }
  }
  attr {
    key: "data_format"
    value {
      s: "NHWC"
    }
  }
  attr {
    key: "epsilon"
    value {
      f: 0.0010000000474974513
    }
  }
  attr {
    key: "is_training"
    value {
      b: false
    }
  }
}
node {
  name: "leaky_6/LeakyRelu"
  op: "LeakyRelu"
  input: "bnorm_6/FusedBatchNormV3_1"
  attr {
    key: "T"
    value {
      type: DT_FLOAT
    }
  }
  attr {
    key: "alpha"
    value {
      f: 0.10000000149011612
    }
  }
}
node {
  name: "conv_7/random_uniform/shape"
  op: "Const"
  attr {
    key: "dtype"
    value {
      type: DT_INT32
    }
  }
  attr {
    key: "value"
    value {
      tensor {
        dtype: DT_INT32
        tensor_shape {
          dim {
            size: 4
          }
        }
        tensor_content: "\003\000\000\000\003\000\000\000@\000\000\000\200\000\000\000"
      }
    }
  }
}
node {
  name: "conv_7/random_uniform/min"
  op: "Const"
  attr {
    key: "dtype"
    value {
      type: DT_FLOAT
    }
  }
  attr {
    key: "value"
    value {
      tensor {
        dtype: DT_FLOAT
        tensor_shape {
        }
        float_val: -0.0589255653321743
      }
    }
  }
}
node {
  name: "conv_7/random_uniform/max"
  op: "Const"
  attr {
    key: "dtype"
    value {
      type: DT_FLOAT
    }
  }
  attr {
    key: "value"
    value {
      tensor {
        dtype: DT_FLOAT
        tensor_shape {
        }
        float_val: 0.0589255653321743
      }
    }
  }
}
node {
  name: "conv_7/random_uniform/RandomUniform"
  op: "RandomUniform"
  input: "conv_7/random_uniform/shape"
  attr {
    key: "T"
    value {
      type: DT_INT32
    }
  }
  attr {
    key: "dtype"
    value {
      type: DT_FLOAT
    }
  }
  attr {
    key: "seed"
    value {
      i: 87654321
    }
  }
  attr {
    key: "seed2"
    value {
      i: 2166410
    }
  }
}
node {
  name: "conv_7/random_uniform/sub"
  op: "Sub"
  input: "conv_7/random_uniform/max"
  input: "conv_7/random_uniform/min"
  attr {
    key: "T"
    value {
      type: DT_FLOAT
    }
  }
}
node {
…
      type: DT_FLOAT
    }
  }
}
node {
  name: "Placeholder_364"
  op: "Placeholder"
  attr {
    key: "dtype"
    value {
      type: DT_FLOAT
    }
  }
  attr {
    key: "shape"
    value {
      shape {
        dim {
          size: -1
        }
        dim {
          size: -1
        }
        dim {
          size: -1
        }
        dim {
          size: -1
        }
      }
    }
  }
}
node {
  name: "AssignVariableOp_364"
  op: "AssignVariableOp"
  input: "conv_105/kernel"
  input: "Placeholder_364"
  attr {
    key: "dtype"
    value {
      type: DT_FLOAT
    }
  }
}
node {
  name: "ReadVariableOp_364"
  op: "ReadVariableOp"
  input: "conv_105/kernel"
  input: "^AssignVariableOp_364"
  attr {
    key: "dtype"
    value {
      type: DT_FLOAT
    }
  }
}
node {
  name: "Placeholder_365"
  op: "Placeholder"
  attr {
    key: "dtype"
    value {
      type: DT_FLOAT
    }
  }
  attr {
    key: "shape"
    value {
      shape {
        dim {
          size: -1
        }
      }
    }
  }
}
node {
  name: "AssignVariableOp_365"
  op: "AssignVariableOp"
  input: "conv_105/bias"
  input: "Placeholder_365"
  attr {
    key: "dtype"
    value {
      type: DT_FLOAT
    }
  }
}
node {
  name: "ReadVariableOp_365"
  op: "ReadVariableOp"
  input: "conv_105/bias"
  input: "^AssignVariableOp_365"
  attr {
    key: "dtype"
    value {
      type: DT_FLOAT
    }
  }
}
node {
  name: "VarIsInitializedOp"
  op: "VarIsInitializedOp"
  input: "bnorm_53/gamma"
}
node {
  name: "VarIsInitializedOp_1"
  op: "VarIsInitializedOp"
  input: "bnorm_38/gamma"
}
node {
  name: "VarIsInitializedOp_2"
  op: "VarIsInitializedOp"
  input: "bnorm_44/beta"
}
node {
  name: "VarIsInitializedOp_3"
  op: "VarIsInitializedOp"
  input: "bnorm_103/beta"
}
node {
  name: "VarIsInitializedOp_4"
  op: "VarIsInitializedOp"
  input: "bnorm_69/moving_mean"
}
node {
  name: "VarIsInitializedOp_5"
  op: "VarIsInitializedOp"
  input: "bnorm_5/moving_mean"
}
node {
  name: "VarIsInitializedOp_6"
  op: "VarIsInitializedOp"
  input: "bnorm_31/beta"
}
node {
  name: "VarIsInitializedOp_7"
  op: "VarIsInitializedOp"
  input: "bnorm_64/beta"
}
node {
  name: "VarIsInitializedOp_8"
  op: "VarIsInitializedOp"
  input: "bnorm_70/moving_mean"
}
node {
  name: "VarIsInitializedOp_9"
  op: "VarIsInitializedOp"
  input: "bnorm_78/moving_variance"
}
node {
  name: "VarIsInitializedOp_10"
  op: "VarIsInitializedOp"
  input: "bnorm_88/moving_variance"
}
node {
  name: "VarIsInitializedOp_11"
  op: "VarIsInitializedOp"
  input: "bnorm_91/moving_mean"
}
node {
  name: "VarIsInitializedOp_12"
  op: "VarIsInitializedOp"
  input: "bnorm_92/moving_mean"
}
node {
  name: "VarIsInitializedOp_13"
  op: "VarIsInitializedOp"
  input: "bnorm_67/gamma"
}
node {
  name: "VarIsInitializedOp_14"
  op: "VarIsInitializedOp"
  input: "bnorm_90/gamma"
}
node {
  name: "VarIsInitializedOp_15"
  op: "VarIsInitializedOp"
  input: "conv_23/kernel"
}
node {
  name: "VarIsInitializedOp_16"
  op: "VarIsInitializedOp"
  input: "conv_60/kernel"
}
node {
  name: "VarIsInitializedOp_17"
  op: "VarIsInitializedOp"
  input: "conv_63/kernel"
}
node {
  name: "VarIsInitializedOp_18"
  op: "VarIsInitializedOp"
  input: "bnorm_76/gamma"
}
node {
  name: "VarIsInitializedOp_19"
  op: "VarIsInitializedOp"
  input: "bnorm_16/moving_mean"
}
node {
  name: "VarIsInitializedOp_20"
  op: "VarIsInitializedOp"
  input: "bnorm_29/gamma"
}
node {
  name: "VarIsInitializedOp_21"
  op: "VarIsInitializedOp"
  input: "bnorm_41/moving_variance"
}
node {
  name: "VarIsInitializedOp_22"
  op: "VarIsInitializedOp"
  input: "bnorm_57/moving_mean"
}
node {
  name: "VarIsInitializedOp_23"
  op: "VarIsInitializedOp"
  input: "bnorm_12/moving_variance"
}
node {
  name: "VarIsInitializedOp_24"
  op: "VarIsInitializedOp"
  input: "conv_13/kernel"
}
node {
  name: "VarIsInitializedOp_25"
  op: "VarIsInitializedOp"
  input: "conv_42/kernel"
}
node {
  name: "VarIsInitializedOp_26"
  op: "VarIsInitializedOp"
  input: "bnorm_51/moving_mean"
}
node {
  name: "VarIsInitializedOp_27"
  op: "VarIsInitializedOp"
  input: "conv_54/kernel"
}
node {
  name: "VarIsInitializedOp_28"
  op: "VarIsInitializedOp"
  input: "conv_77/kernel"
}
node {
  name: "VarIsInitializedOp_29"
  op: "VarIsInitializedOp"
  input: "bnorm_89/beta"
}
node {
  name: "VarIsInitializedOp_30"
  op: "VarIsInitializedOp"
  input: "bnorm_102/moving_variance"
}
node {
  name: "VarIsInitializedOp_31"
  op: "VarIsInitializedOp"
  input: "conv_93/kernel"
}
node {
  name: "VarIsInitializedOp_32"
  op: "VarIsInitializedOp"
  input: "conv_57/kernel"
}
node {
  name: "VarIsInitializedOp_33"
  op: "VarIsInitializedOp"
  input: "bnorm_91/beta"
}
node {
  name: "VarIsInitializedOp_34"
  op: "VarIsInitializedOp"
  input: "bnorm_48/gamma"
}
node {
  name: "VarIsInitializedOp_35"
  op: "VarIsInitializedOp"
  input: "bnorm_50/moving_mean"
}
node {
  name: "VarIsInitializedOp_36"
  op: "VarIsInitializedOp"
  input: "bnorm_77/gamma"
}
node {
  name: "VarIsInitializedOp_37"
  op: "VarIsInitializedOp"
  input: "bnorm_101/beta"
}
node {
  name: "VarIsInitializedOp_38"
  op: "VarIsInitializedOp"
  input: "bnorm_101/moving_mean"
}
node {
  name: "VarIsInitializedOp_39"
  op: "VarIsInitializedOp"
  input: "bnorm_45/gamma"
}
node {
  name: "VarIsInitializedOp_40"
  op: "VarIsInitializedOp"
  input: "bnorm_66/gamma"
}
node {
  name: "VarIsInitializedOp_41"
  op: "VarIsInitializedOp"
  input: "bnorm_72/beta"
}
node {
  name: "VarIsInitializedOp_42"
  op: "VarIsInitializedOp"
  input: "conv_75/kernel"
}
node {
  name: "VarIsInitializedOp_43"
  op: "VarIsInitializedOp"
  input: "conv_102/kernel"
}
node {
  name: "VarIsInitializedOp_44"
  op: "VarIsInitializedOp"
  input: "conv_105/kernel"
}
node {
  name: "VarIsInitializedOp_45"
  op: "VarIsInitializedOp"
  input: "bnorm_89/gamma"
}
node {
  name: "VarIsInitializedOp_46"
  op: "VarIsInitializedOp"
  input: "bnorm_96/moving_mean"
}
node {
  name: "VarIsInitializedOp_47"
  op: "VarIsInitializedOp"
  input: "bnorm_73/moving_variance"
}
node {
  name: "VarIsInitializedOp_48"
  op: "VarIsInitializedOp"
  input: "bnorm_1/moving_mean"
}
node {
  name: "VarIsInitializedOp_49"
  op: "VarIsInitializedOp"
  input: "bnorm_26/gamma"
}
node {
  name: "VarIsInitializedOp_50"
  op: "VarIsInitializedOp"
  input: "bnorm_32/moving_mean"
}
node {
  name: "VarIsInitializedOp_51"
  op: "VarIsInitializedOp"
  input: "bnorm_34/moving_variance"
}
node {
  name: "VarIsInitializedOp_52"
  op: "VarIsInitializedOp"
  input: "bnorm_39/beta"
}
node {
  name: "VarIsInitializedOp_53"
  op: "VarIsInitializedOp"
  input: "bnorm_59/beta"
}
node {
  name: "VarIsInitializedOp_54"
  op: "VarIsInitializedOp"
  input: "bnorm_62/beta"
}
node {
  name: "VarIsInitializedOp_55"
  op: "VarIsInitializedOp"
  input: "bnorm_64/moving_variance"
}
node {
  name: "VarIsInitializedOp_56"
  op: "VarIsInitializedOp"
  input: "bnorm_73/moving_mean"
}
node {
  name: "VarIsInitializedOp_57"
  op: "VarIsInitializedOp"
  input: "bnorm_54/moving_mean"
}
node {
  name: "VarIsInitializedOp_58"
  op: "VarIsInitializedOp"
  input: "bnorm_73/gamma"
}
node {
  name: "VarIsInitializedOp_59"
  op: "VarIsInitializedOp"
  input: "bnorm_99/moving_variance"
}
node {
  name: "VarIsInitializedOp_60"
  op: "VarIsInitializedOp"
  input: "bnorm_63/moving_variance"
}
node {
  name: "VarIsInitializedOp_61"
  op: "VarIsInitializedOp"
  input: "bnorm_87/beta"
}
node {
  name: "VarIsInitializedOp_62"
  op: "VarIsInitializedOp"
  input: "bnorm_99/gamma"
}
node {
  name: "VarIsInitializedOp_63"
  op: "VarIsInitializedOp"
  input: "bnorm_28/gamma"
}
node {
  name: "VarIsInitializedOp_64"
  op: "VarIsInitializedOp"
  input: "bnorm_53/beta"
}
node {
  name: "VarIsInitializedOp_65"
  op: "VarIsInitializedOp"
  input: "conv_56/kernel"
}
node {
  name: "VarIsInitializedOp_66"
  op: "VarIsInitializedOp"
  input: "conv_88/kernel"
}
node {
  name: "VarIsInitializedOp_67"
  op: "VarIsInitializedOp"
  input: "bnorm_47/moving_variance"
}
node {
  name: "VarIsInitializedOp_68"
  op: "VarIsInitializedOp"
  input: "bnorm_67/moving_mean"
}
node {
  name: "VarIsInitializedOp_69"
  op: "VarIsInitializedOp"
  input: "bnorm_78/gamma"
}
node {
  name: "VarIsInitializedOp_70"
  op: "VarIsInitializedOp"
  input: "bnorm_26/moving_mean"
}
node {
  name: "VarIsInitializedOp_71"
  op: "VarIsInitializedOp"
  input: "bnorm_6/moving_mean"
}
node {
  name: "VarIsInitializedOp_72"
  op: "VarIsInitializedOp"
  input: "bnorm_92/beta"
}
node {
  name: "VarIsInitializedOp_73"
  op: "VarIsInitializedOp"
  input: "bnorm_80/gamma"
}
node {
  name: "VarIsInitializedOp_74"
  op: "VarIsInitializedOp"
  input: "bnorm_89/moving_mean"
}
node {
  name: "VarIsInitializedOp_75"
  op: "VarIsInitializedOp"
  input: "bnorm_20/beta"
}
node {
  name: "VarIsInitializedOp_76"
  op: "VarIsInitializedOp"
  input: "bnorm_13/moving_variance"
}
node {
  name: "VarIsInitializedOp_77"
  op: "VarIsInitializedOp"
  input: "conv_34/kernel"
}
node {
  name: "VarIsInitializedOp_78"
  op: "VarIsInitializedOp"
  input: "bnorm_41/gamma"
}
node {
  name: "VarIsInitializedOp_79"
  op: "VarIsInitializedOp"
  input: "bnorm_54/moving_variance"
}
node {
  name: "VarIsInitializedOp_80"
  op: "VarIsInitializedOp"
  input: "conv_73/kernel"
}
node {
  name: "VarIsInitializedOp_81"
  op: "VarIsInitializedOp"
  input: "bnorm_84/beta"
}
node {
  name: "VarIsInitializedOp_82"
  op: "VarIsInitializedOp"
  input: "bnorm_57/gamma"
}
node {
  name: "VarIsInitializedOp_83"
  op: "VarIsInitializedOp"
  input: "conv_105/bias"
}
node {
  name: "VarIsInitializedOp_84"
  op: "VarIsInitializedOp"
  input: "bnorm_92/moving_variance"
}
node {
  name: "VarIsInitializedOp_85"
  op: "VarIsInitializedOp"
  input: "conv_5/kernel"
}
node {
  name: "VarIsInitializedOp_86"
  op: "VarIsInitializedOp"
  input: "conv_19/kernel"
}
node {
  name: "VarIsInitializedOp_87"
  op: "VarIsInitializedOp"
  input: "bnorm_34/moving_mean"
}
node {
  name: "VarIsInitializedOp_88"
  op: "VarIsInitializedOp"
  input: "bnorm_41/beta"
}
node {
  name: "VarIsInitializedOp_89"
  op: "VarIsInitializedOp"
  input: "bnorm_48/beta"
}
node {
  name: "VarIsInitializedOp_90"
  op: "VarIsInitializedOp"
  input: "conv_51/kernel"
}
node {
  name: "VarIsInitializedOp_91"
  op: "VarIsInitializedOp"
  input: "bnorm_57/moving_variance"
}
node {
  name: "VarIsInitializedOp_92"
  op: "VarIsInitializedOp"
  input: "bnorm_75/moving_variance"
}
node {
  name: "VarIsInitializedOp_93"
  op: "VarIsInitializedOp"
  input: "conv_76/kernel"
}
node {
  name: "VarIsInitializedOp_94"
  op: "VarIsInitializedOp"
  input: "bnorm_100/moving_variance"
}
node {
  name: "VarIsInitializedOp_95"
  op: "VarIsInitializedOp"
  input: "bnorm_28/moving_variance"
}
node {
  name: "VarIsInitializedOp_96"
  op: "VarIsInitializedOp"
  input: "conv_31/kernel"
}
node {
  name: "VarIsInitializedOp_97"
  op: "VarIsInitializedOp"
  input: "bnorm_60/beta"
}
node {
  name: "VarIsInitializedOp_98"
  op: "VarIsInitializedOp"
  input: "bnorm_25/moving_variance"
}
node {
  name: "VarIsInitializedOp_99"
  op: "VarIsInitializedOp"
  input: "bnorm_35/moving_variance"
}
node {
  name: "VarIsInitializedOp_100"
  op: "VarIsInitializedOp"
  input: "conv_39/kernel"
}
node {
  name: "VarIsInitializedOp_101"
  op: "VarIsInitializedOp"
  input: "bnorm_69/gamma"
}
node {
  name: "VarIsInitializedOp_102"
  op: "VarIsInitializedOp"
  input: "conv_81/kernel"
}
node {
  name: "VarIsInitializedOp_103"
  op: "VarIsInitializedOp"
  input: "conv_64/kernel"
}
node {
  name: "VarIsInitializedOp_104"
  op: "VarIsInitializedOp"
  input: "conv_70/kernel"
}
node {
  name: "VarIsInitializedOp_105"
  op: "VarIsInitializedOp"
  input: "conv_91/kernel"
}
node {
  name: "VarIsInitializedOp_106"
  op: "VarIsInitializedOp"
  input: "bnorm_104/moving_mean"
}
node {
  name: "VarIsInitializedOp_107"
  op: "VarIsInitializedOp"
  input: "bnorm_88/moving_mean"
}
node {
  name: "VarIsInitializedOp_108"
  op: "VarIsInitializedOp"
  input: "bnorm_84/moving_mean"
}
node {
  name: "VarIsInitializedOp_109"
  op: "VarIsInitializedOp"
  input: "bnorm_90/beta"
}
node {
  name: "VarIsInitializedOp_110"
  op: "VarIsInitializedOp"
  input: "bnorm_3/gamma"
}
node {
  name: "VarIsInitializedOp_111"
  op: "VarIsInitializedOp"
  input: "bnorm_14/moving_variance"
}
node {
  name: "VarIsInitializedOp_112"
  op: "VarIsInitializedOp"
  input: "bnorm_20/moving_mean"
}
node {
  name: "VarIsInitializedOp_113"
  op: "VarIsInitializedOp"
  input: "conv_22/kernel"
}
node {
  name: "VarIsInitializedOp_114"
  op: "VarIsInitializedOp"
  input: "bnorm_29/beta"
}
node {
  name: "VarIsInitializedOp_115"
  op: "VarIsInitializedOp"
  input: "bnorm_48/moving_variance"
}
node {
  name: "VarIsInitializedOp_116"
  op: "VarIsInitializedOp"
  input: "bnorm_56/moving_variance"
}
node {
  name: "VarIsInitializedOp_117"
  op: "VarIsInitializedOp"
  input: "conv_37/kernel"
}
node {
  name: "VarIsInitializedOp_118"
  op: "VarIsInitializedOp"
  input: "bnorm_87/moving_variance"
}
node {
  name: "VarIsInitializedOp_119"
  op: "VarIsInitializedOp"
  input: "bnorm_17/gamma"
}
node {
  name: "VarIsInitializedOp_120"
  op: "VarIsInitializedOp"
  input: "conv_80/kernel"
}
node {
  name: "VarIsInitializedOp_121"
  op: "VarIsInitializedOp"
  input: "bnorm_84/gamma"
}
node {
  name: "VarIsInitializedOp_122"
  op: "VarIsInitializedOp"
  input: "bnorm_3/moving_variance"
}
node {
  name: "VarIsInitializedOp_123"
  op: "VarIsInitializedOp"
  input: "bnorm_2/gamma"
}
node {
  name: "VarIsInitializedOp_124"
  op: "VarIsInitializedOp"
  input: "bnorm_9/moving_variance"
}
node {
  name: "VarIsInitializedOp_125"
  op: "VarIsInitializedOp"
  input: "bnorm_10/gamma"
}
node {
  name: "VarIsInitializedOp_126"
  op: "VarIsInitializedOp"
  input: "bnorm_12/moving_mean"
}
node {
  name: "VarIsInitializedOp_127"
  op: "VarIsInitializedOp"
  input: "conv_28/kernel"
}
node {
  name: "VarIsInitializedOp_128"
  op: "VarIsInitializedOp"
  input: "bnorm_50/gamma"
}
node {
  name: "VarIsInitializedOp_129"
  op: "VarIsInitializedOp"
  input: "conv_67/kernel"
}
node {
  name: "VarIsInitializedOp_130"
  op: "VarIsInitializedOp"
  input: "bnorm_69/moving_variance"
}
node {
  name: "VarIsInitializedOp_131"
  op: "VarIsInitializedOp"
  input: "bnorm_9/beta"
}
node {
  name: "VarIsInitializedOp_132"
  op: "VarIsInitializedOp"
  input: "conv_20/kernel"
}
node {
  name: "VarIsInitializedOp_133"
  op: "VarIsInitializedOp"
  input: "bnorm_38/beta"
}
node {
  name: "VarIsInitializedOp_134"
  op: "VarIsInitializedOp"
  input: "bnorm_38/moving_variance"
}
node {
  name: "VarIsInitializedOp_135"
  op: "VarIsInitializedOp"
  input: "bnorm_78/moving_mean"
}
node {
  name: "VarIsInitializedOp_136"
  op: "VarIsInitializedOp"
  input: "bnorm_99/moving_mean"
}
node {
  name: "VarIsInitializedOp_137"
  op: "VarIsInitializedOp"
  input: "bnorm_76/beta"
}
node {
  name: "VarIsInitializedOp_138"
  op: "VarIsInitializedOp"
  input: "conv_62/kernel"
}
node {
  name: "VarIsInitializedOp_139"
  op: "VarIsInitializedOp"
  input: "conv_89/kernel"
}
node {
  name: "VarIsInitializedOp_140"
  op: "VarIsInitializedOp"
  input: "bnorm_90/moving_variance"
}
node {
  name: "VarIsInitializedOp_141"
  op: "VarIsInitializedOp"
  input: "conv_103/kernel"
}
node {
  name: "VarIsInitializedOp_142"
  op: "VarIsInitializedOp"
  input: "bnorm_96/gamma"
}
node {
  name: "VarIsInitializedOp_143"
  op: "VarIsInitializedOp"
  input: "conv_84/kernel"
}
node {
  name: "VarIsInitializedOp_144"
  op: "VarIsInitializedOp"
  input: "bnorm_17/moving_variance"
}
node {
  name: "VarIsInitializedOp_145"
  op: "VarIsInitializedOp"
  input: "bnorm_2/moving_variance"
}
node {
  name: "VarIsInitializedOp_146"
  op: "VarIsInitializedOp"
  input: "bnorm_5/moving_variance"
}
node {
  name: "VarIsInitializedOp_147"
  op: "VarIsInitializedOp"
  input: "bnorm_7/gamma"
}
node {
  name: "VarIsInitializedOp_148"
  op: "VarIsInitializedOp"
  input: "bnorm_1/gamma"
}
node {
  name: "VarIsInitializedOp_149"
  op: "VarIsInitializedOp"
  input: "conv_25/kernel"
}
node {
  name: "VarIsInitializedOp_150"
  op: "VarIsInitializedOp"
  input: "conv_32/kernel"
}
node {
  name: "VarIsInitializedOp_151"
  op: "VarIsInitializedOp"
  input: "bnorm_39/moving_variance"
}
node {
  name: "VarIsInitializedOp_152"
  op: "VarIsInitializedOp"
  input: "bnorm_104/beta"
}
node {
  name: "VarIsInitializedOp_153"
  op: "VarIsInitializedOp"
  input: "bnorm_20/gamma"
}
node {
  name: "VarIsInitializedOp_154"
  op: "VarIsInitializedOp"
  input: "bnorm_26/moving_variance"
}
node {
  name: "VarIsInitializedOp_155"
  op: "VarIsInitializedOp"
  input: "bnorm_3/beta"
}
node {
  name: "VarIsInitializedOp_156"
  op: "VarIsInitializedOp"
  input: "bnorm_6/gamma"
}
node {
  name: "VarIsInitializedOp_157"
  op: "VarIsInitializedOp"
  input: "bnorm_7/moving_variance"
}
node {
  name: "VarIsInitializedOp_158"
  op: "VarIsInitializedOp"
  input: "bnorm_14/moving_mean"
}
node {
  name: "VarIsInitializedOp_159"
  op: "VarIsInitializedOp"
  input: "bnorm_20/moving_variance"
}
node {
  name: "VarIsInitializedOp_160"
  op: "VarIsInitializedOp"
  input: "conv_26/kernel"
}
node {
  name: "VarIsInitializedOp_161"
  op: "VarIsInitializedOp"
  input: "bnorm_31/gamma"
}
node {
  name: "VarIsInitializedOp_162"
  op: "VarIsInitializedOp"
  input: "conv_35/kernel"
}
node {
  name: "VarIsInitializedOp_163"
  op: "VarIsInitializedOp"
  input: "bnorm_47/beta"
}
node {
  name: "VarIsInitializedOp_164"
  op: "VarIsInitializedOp"
  input: "bnorm_56/gamma"
}
node {
  name: "VarIsInitializedOp_165"
  op: "VarIsInitializedOp"
  input: "bnorm_14/beta"
}
node {
  name: "VarIsInitializedOp_166"
  op: "VarIsInitializedOp"
  input: "conv_79/kernel"
}
node {
  name: "VarIsInitializedOp_167"
  op: "VarIsInitializedOp"
  input: "bnorm_56/beta"
}
node {
  name: "VarIsInitializedOp_168"
  op: "VarIsInitializedOp"
  input: "bnorm_60/gamma"
}
node {
  name: "VarIsInitializedOp_169"
  op: "VarIsInitializedOp"
  input: "conv_66/kernel"
}
node {
  name: "VarIsInitializedOp_170"
  op: "VarIsInitializedOp"
  input: "bnorm_102/gamma"
}
node {
  name: "VarIsInitializedOp_171"
  op: "VarIsInitializedOp"
  input: "conv_17/kernel"
}
node {
  name: "VarIsInitializedOp_172"
  op: "VarIsInitializedOp"
  input: "bnorm_6/moving_variance"
}
node {
  name: "VarIsInitializedOp_173"
  op: "VarIsInitializedOp"
  input: "bnorm_9/gamma"
}
node {
  name: "VarIsInitializedOp_174"
  op: "VarIsInitializedOp"
  input: "bnorm_10/beta"
}
node {
  name: "VarIsInitializedOp_175"
  op: "VarIsInitializedOp"
  input: "bnorm_17/moving_mean"
}
node {
  name: "VarIsInitializedOp_176"
  op: "VarIsInitializedOp"
  input: "bnorm_2/beta"
}
node {
  name: "VarIsInitializedOp_177"
  op: "VarIsInitializedOp"
  input: "bnorm_47/moving_mean"
}
node {
  name: "VarIsInitializedOp_178"
  op: "VarIsInitializedOp"
  input: "bnorm_56/moving_mean"
}
node {
  name: "VarIsInitializedOp_179"
  op: "VarIsInitializedOp"
  input: "bnorm_59/moving_mean"
}
node {
  name: "VarIsInitializedOp_180"
  op: "VarIsInitializedOp"
  input: "bnorm_66/moving_variance"
}
node {
  name: "VarIsInitializedOp_181"
  op: "VarIsInitializedOp"
  input: "conv_69/kernel"
}
node {
  name: "VarIsInitializedOp_182"
  op: "VarIsInitializedOp"
  input: "bnorm_47/gamma"
}
node {
  name: "VarIsInitializedOp_183"
  op: "VarIsInitializedOp"
  input: "bnorm_13/gamma"
}
node {
  name: "VarIsInitializedOp_184"
  op: "VarIsInitializedOp"
  input: "conv_41/kernel"
}
node {
  name: "VarIsInitializedOp_185"
  op: "VarIsInitializedOp"
  input: "bnorm_54/gamma"
}
node {
  name: "VarIsInitializedOp_186"
  op: "VarIsInitializedOp"
  input: "bnorm_70/beta"
}
node {
  name: "VarIsInitializedOp_187"
  op: "VarIsInitializedOp"
  input: "bnorm_91/moving_variance"
}
node {
  name: "VarIsInitializedOp_188"
  op: "VarIsInitializedOp"
  input: "bnorm_1/beta"
}
node {
  name: "VarIsInitializedOp_189"
  op: "VarIsInitializedOp"
  input: "bnorm_3/moving_mean"
}
node {
  name: "VarIsInitializedOp_190"
  op: "VarIsInitializedOp"
  input: "bnorm_7/beta"
}
node {
  name: "VarIsInitializedOp_191"
  op: "VarIsInitializedOp"
  input: "bnorm_31/moving_variance"
}
node {
  name: "VarIsInitializedOp_192"
  op: "VarIsInitializedOp"
  input: "bnorm_37/gamma"
}
node {
  name: "VarIsInitializedOp_193"
  op: "VarIsInitializedOp"
  input: "bnorm_38/moving_mean"
}
node {
  name: "VarIsInitializedOp_194"
  op: "VarIsInitializedOp"
  input: "conv_47/kernel"
}
node {
  name: "VarIsInitializedOp_195"
  op: "VarIsInitializedOp"
  input: "bnorm_51/beta"
}
node {
  name: "VarIsInitializedOp_196"
  op: "VarIsInitializedOp"
  input: "bnorm_76/moving_variance"
}
node {
  name: "VarIsInitializedOp_197"
  op: "VarIsInitializedOp"
  input: "bnorm_77/moving_mean"
}
node {
  name: "VarIsInitializedOp_198"
  op: "VarIsInitializedOp"
  input: "conv_45/kernel"
}
node {
  name: "VarIsInitializedOp_199"
  op: "VarIsInitializedOp"
  input: "bnorm_75/moving_mean"
}
node {
  name: "VarIsInitializedOp_200"
  op: "VarIsInitializedOp"
  input: "conv_101/kernel"
}
node {
  name: "VarIsInitializedOp_201"
  op: "VarIsInitializedOp"
  input: "bnorm_59/gamma"
}
node {
  name: "VarIsInitializedOp_202"
  op: "VarIsInitializedOp"
  input: "conv_1/kernel"
}
node {
  name: "VarIsInitializedOp_203"
  op: "VarIsInitializedOp"
  input: "bnorm_2/moving_mean"
}
node {
  name: "VarIsInitializedOp_204"
  op: "VarIsInitializedOp"
  input: "bnorm_6/beta"
}
node {
  name: "VarIsInitializedOp_205"
  op: "VarIsInitializedOp"
  input: "bnorm_7/moving_mean"
}
node {
  name: "VarIsInitializedOp_206"
  op: "VarIsInitializedOp"
  input: "bnorm_9/moving_mean"
}
node {
  name: "VarIsInitializedOp_207"
  op: "VarIsInitializedOp"
  input: "bnorm_10/moving_mean"
}
node {
  name: "VarIsInitializedOp_208"
  op: "VarIsInitializedOp"
  input: "bnorm_16/beta"
}
node {
  name: "VarIsInitializedOp_209"
  op: "VarIsInitializedOp"
  input: "bnorm_16/moving_variance"
}
node {
  name: "VarIsInitializedOp_210"
  op: "VarIsInitializedOp"
  input: "conv_48/kernel"
}
node {
  name: "VarIsInitializedOp_211"
  op: "VarIsInitializedOp"
  input: "bnorm_42/moving_variance"
}
node {
  name: "VarIsInitializedOp_212"
  op: "VarIsInitializedOp"
  input: "bnorm_76/moving_mean"
}
node {
  name: "VarIsInitializedOp_213"
  op: "VarIsInitializedOp"
  input: "bnorm_100/beta"
}
node {
  name: "VarIsInitializedOp_214"
  op: "VarIsInitializedOp"
  input: "bnorm_62/moving_variance"
}
node {
  name: "VarIsInitializedOp_215"
  op: "VarIsInitializedOp"
  input: "bnorm_77/moving_variance"
}
node {
  name: "VarIsInitializedOp_216"
  op: "VarIsInitializedOp"
  input: "conv_78/kernel"
}
node {
  name: "VarIsInitializedOp_217"
  op: "VarIsInitializedOp"
  input: "bnorm_96/beta"
}
node {
  name: "VarIsInitializedOp_218"
  op: "VarIsInitializedOp"
  input: "bnorm_12/gamma"
}
node {
  name: "VarIsInitializedOp_219"
  op: "VarIsInitializedOp"
  input: "bnorm_16/gamma"
}
node {
  name: "VarIsInitializedOp_220"
  op: "VarIsInitializedOp"
  input: "bnorm_23/moving_variance"
}
node {
  name: "VarIsInitializedOp_221"
  op: "VarIsInitializedOp"
  input: "bnorm_32/beta"
}
node {
  name: "VarIsInitializedOp_222"
  op: "VarIsInitializedOp"
  input: "bnorm_37/moving_variance"
}
node {
  name: "VarIsInitializedOp_223"
  op: "VarIsInitializedOp"
  input: "conv_14/kernel"
}
node {
  name: "VarIsInitializedOp_224"
  op: "VarIsInitializedOp"
  input: "bnorm_103/gamma"
}
node {
  name: "VarIsInitializedOp_225"
  op: "VarIsInitializedOp"
  input: "conv_72/kernel"
}
node {
  name: "VarIsInitializedOp_226"
  op: "VarIsInitializedOp"
  input: "bnorm_87/gamma"
}
node {
  name: "VarIsInitializedOp_227"
  op: "VarIsInitializedOp"
  input: "bnorm_62/moving_mean"
}
node {
  name: "VarIsInitializedOp_228"
  op: "VarIsInitializedOp"
  input: "bnorm_72/moving_variance"
}
node {
  name: "VarIsInitializedOp_229"
  op: "VarIsInitializedOp"
  input: "bnorm_100/moving_mean"
}
node {
  name: "VarIsInitializedOp_230"
  op: "VarIsInitializedOp"
  input: "bnorm_88/gamma"
}
node {
  name: "VarIsInitializedOp_231"
  op: "VarIsInitializedOp"
  input: "bnorm_102/beta"
}
node {
  name: "VarIsInitializedOp_232"
  op: "VarIsInitializedOp"
  input: "bnorm_22/moving_mean"
}
node {
  name: "VarIsInitializedOp_233"
  op: "VarIsInitializedOp"
  input: "bnorm_5/gamma"
}
node {
  name: "VarIsInitializedOp_234"
  op: "VarIsInitializedOp"
  input: "bnorm_19/moving_variance"
}
node {
  name: "VarIsInitializedOp_235"
  op: "VarIsInitializedOp"
  input: "bnorm_44/gamma"
}
node {
  name: "VarIsInitializedOp_236"
  op: "VarIsInitializedOp"
  input: "bnorm_96/moving_variance"
}
node {
  name: "VarIsInitializedOp_237"
  op: "VarIsInitializedOp"
  input: "bnorm_101/gamma"
}
node {
  name: "VarIsInitializedOp_238"
  op: "VarIsInitializedOp"
  input: "conv_6/kernel"
}
node {
  name: "VarIsInitializedOp_239"
  op: "VarIsInitializedOp"
  input: "bnorm_23/moving_mean"
}
node {
  name: "VarIsInitializedOp_240"
  op: "VarIsInitializedOp"
  input: "bnorm_31/moving_mean"
}
node {
  name: "VarIsInitializedOp_241"
  op: "VarIsInitializedOp"
  input: "bnorm_63/moving_mean"
}
node {
  name: "VarIsInitializedOp_242"
  op: "VarIsInitializedOp"
  input: "bnorm_70/gamma"
}
node {
  name: "VarIsInitializedOp_243"
  op: "VarIsInitializedOp"
  input: "bnorm_91/gamma"
}
node {
  name: "VarIsInitializedOp_244"
  op: "VarIsInitializedOp"
  input: "conv_12/kernel"
}
node {
  name: "VarIsInitializedOp_245"
  op: "VarIsInitializedOp"
  input: "bnorm_22/gamma"
}
node {
  name: "VarIsInitializedOp_246"
  op: "VarIsInitializedOp"
  input: "bnorm_23/gamma"
}
node {
  name: "VarIsInitializedOp_247"
  op: "VarIsInitializedOp"
  input: "bnorm_32/moving_variance"
}
node {
  name: "VarIsInitializedOp_248"
  op: "VarIsInitializedOp"
  input: "bnorm_37/moving_mean"
}
node {
  name: "VarIsInitializedOp_249"
  op: "VarIsInitializedOp"
  input: "conv_44/kernel"
}
node {
  name: "VarIsInitializedOp_250"
  op: "VarIsInitializedOp"
  input: "bnorm_63/gamma"
}
node {
  name: "VarIsInitializedOp_251"
  op: "VarIsInitializedOp"
  input: "bnorm_60/moving_variance"
}
node {
  name: "VarIsInitializedOp_252"
  op: "VarIsInitializedOp"
  input: "bnorm_79/moving_variance"
}
node {
  name: "VarIsInitializedOp_253"
  op: "VarIsInitializedOp"
  input: "conv_92/kernel"
}
node {
  name: "VarIsInitializedOp_254"
  op: "VarIsInitializedOp"
  input: "bnorm_29/moving_variance"
}
node {
  name: "VarIsInitializedOp_255"
  op: "VarIsInitializedOp"
  input: "bnorm_59/moving_variance"
}
node {
  name: "VarIsInitializedOp_256"
  op: "VarIsInitializedOp"
  input: "bnorm_103/moving_variance"
}
node {
  name: "VarIsInitializedOp_257"
  op: "VarIsInitializedOp"
  input: "bnorm_22/moving_variance"
}
node {
  name: "VarIsInitializedOp_258"
  op: "VarIsInitializedOp"
  input: "bnorm_28/moving_mean"
}
node {
  name: "VarIsInitializedOp_259"
  op: "VarIsInitializedOp"
  input: "bnorm_37/beta"
}
node {
  name: "VarIsInitializedOp_260"
  op: "VarIsInitializedOp"
  input: "bnorm_67/moving_variance"
}
node {
  name: "VarIsInitializedOp_261"
  op: "VarIsInitializedOp"
  input: "bnorm_92/gamma"
}
node {
  name: "VarIsInitializedOp_262"
  op: "VarIsInitializedOp"
  input: "conv_53/kernel"
}
node {
  name: "VarIsInitializedOp_263"
  op: "VarIsInitializedOp"
  input: "conv_16/kernel"
}
node {
  name: "VarIsInitializedOp_264"
  op: "VarIsInitializedOp"
  input: "bnorm_17/beta"
}
node {
  name: "VarIsInitializedOp_265"
  op: "VarIsInitializedOp"
  input: "bnorm_5/beta"
}
node {
  name: "VarIsInitializedOp_266"
  op: "VarIsInitializedOp"
  input: "bnorm_26/beta"
}
node {
  name: "VarIsInitializedOp_267"
  op: "VarIsInitializedOp"
  input: "bnorm_34/gamma"
}
node {
  name: "VarIsInitializedOp_268"
  op: "VarIsInitializedOp"
  input: "bnorm_35/gamma"
}
node {
  name: "VarIsInitializedOp_269"
  op: "VarIsInitializedOp"
  input: "bnorm_42/gamma"
}
node {
  name: "VarIsInitializedOp_270"
  op: "VarIsInitializedOp"
  input: "bnorm_53/moving_variance"
}
node {
  name: "VarIsInitializedOp_271"
  op: "VarIsInitializedOp"
  input: "conv_59/kernel"
}
node {
  name: "VarIsInitializedOp_272"
  op: "VarIsInitializedOp"
  input: "bnorm_22/beta"
}
node {
  name: "VarIsInitializedOp_273"
  op: "VarIsInitializedOp"
  input: "bnorm_51/gamma"
}
node {
  name: "VarIsInitializedOp_274"
  op: "VarIsInitializedOp"
  input: "bnorm_89/moving_variance"
}
node {
  name: "VarIsInitializedOp_275"
  op: "VarIsInitializedOp"
  input: "bnorm_10/moving_variance"
}
node {
  name: "VarIsInitializedOp_276"
  op: "VarIsInitializedOp"
  input: "bnorm_104/gamma"
}
node {
  name: "VarIsInitializedOp_277"
  op: "VarIsInitializedOp"
  input: "bnorm_41/moving_mean"
}
node {
  name: "VarIsInitializedOp_278"
  op: "VarIsInitializedOp"
  input: "bnorm_78/beta"
}
node {
  name: "VarIsInitializedOp_279"
  op: "VarIsInitializedOp"
  input: "bnorm_87/moving_mean"
}
node {
  name: "VarIsInitializedOp_280"
  op: "VarIsInitializedOp"
  input: "bnorm_99/beta"
}
node {
  name: "VarIsInitializedOp_281"
  op: "VarIsInitializedOp"
  input: "conv_100/kernel"
}
node {
  name: "VarIsInitializedOp_282"
  op: "VarIsInitializedOp"
  input: "conv_81/bias"
}
node {
  name: "VarIsInitializedOp_283"
  op: "VarIsInitializedOp"
  input: "conv_2/kernel"
}
node {
  name: "VarIsInitializedOp_284"
  op: "VarIsInitializedOp"
  input: "conv_3/kernel"
}
node {
  name: "VarIsInitializedOp_285"
  op: "VarIsInitializedOp"
  input: "conv_10/kernel"
}
node {
  name: "VarIsInitializedOp_286"
  op: "VarIsInitializedOp"
  input: "bnorm_19/beta"
}
node {
  name: "VarIsInitializedOp_287"
  op: "VarIsInitializedOp"
  input: "bnorm_25/beta"
}
node {
  name: "VarIsInitializedOp_288"
  op: "VarIsInitializedOp"
  input: "bnorm_48/moving_mean"
}
node {
  name: "VarIsInitializedOp_289"
  op: "VarIsInitializedOp"
  input: "conv_96/kernel"
}
node {
  name: "VarIsInitializedOp_290"
  op: "VarIsInitializedOp"
  input: "bnorm_72/moving_mean"
}
node {
  name: "VarIsInitializedOp_291"
  op: "VarIsInitializedOp"
  input: "bnorm_42/moving_mean"
}
node {
  name: "VarIsInitializedOp_292"
  op: "VarIsInitializedOp"
  input: "bnorm_51/moving_variance"
}
node {
  name: "VarIsInitializedOp_293"
  op: "VarIsInitializedOp"
  input: "bnorm_64/gamma"
}
node {
  name: "VarIsInitializedOp_294"
  op: "VarIsInitializedOp"
  input: "bnorm_73/beta"
}
node {
  name: "VarIsInitializedOp_295"
  op: "VarIsInitializedOp"
  input: "bnorm_77/beta"
}
node {
  name: "VarIsInitializedOp_296"
  op: "VarIsInitializedOp"
  input: "bnorm_13/moving_mean"
}
node {
  name: "VarIsInitializedOp_297"
  op: "VarIsInitializedOp"
  input: "bnorm_19/moving_mean"
}
node {
  name: "VarIsInitializedOp_298"
  op: "VarIsInitializedOp"
  input: "bnorm_25/gamma"
}
node {
  name: "VarIsInitializedOp_299"
  op: "VarIsInitializedOp"
  input: "conv_29/kernel"
}
node {
  name: "VarIsInitializedOp_300"
  op: "VarIsInitializedOp"
  input: "bnorm_34/beta"
}
node {
  name: "VarIsInitializedOp_301"
  op: "VarIsInitializedOp"
  input: "conv_38/kernel"
}
node {
  name: "VarIsInitializedOp_302"
  op: "VarIsInitializedOp"
  input: "bnorm_45/moving_variance"
}
node {
  name: "VarIsInitializedOp_303"
  op: "VarIsInitializedOp"
  input: "bnorm_69/beta"
}
node {
  name: "VarIsInitializedOp_304"
  op: "VarIsInitializedOp"
  input: "bnorm_62/gamma"
}
node {
  name: "VarIsInitializedOp_305"
  op: "VarIsInitializedOp"
  input: "bnorm_79/gamma"
}
node {
  name: "VarIsInitializedOp_306"
  op: "VarIsInitializedOp"
  input: "bnorm_19/gamma"
}
node {
  name: "VarIsInitializedOp_307"
  op: "VarIsInitializedOp"
  input: "conv_9/kernel"
}
node {
  name: "VarIsInitializedOp_308"
  op: "VarIsInitializedOp"
  input: "bnorm_32/gamma"
}
node {
  name: "VarIsInitializedOp_309"
  op: "VarIsInitializedOp"
  input: "bnorm_42/beta"
}
node {
  name: "VarIsInitializedOp_310"
  op: "VarIsInitializedOp"
  input: "bnorm_50/moving_variance"
}
node {
  name: "VarIsInitializedOp_311"
  op: "VarIsInitializedOp"
  input: "bnorm_88/beta"
}
node {
  name: "VarIsInitializedOp_312"
  op: "VarIsInitializedOp"
  input: "bnorm_80/beta"
}
node {
  name: "VarIsInitializedOp_313"
  op: "VarIsInitializedOp"
  input: "bnorm_12/beta"
}
node {
  name: "VarIsInitializedOp_314"
  op: "VarIsInitializedOp"
  input: "bnorm_25/moving_mean"
}
node {
  name: "VarIsInitializedOp_315"
  op: "VarIsInitializedOp"
  input: "bnorm_60/moving_mean"
}
node {
  name: "VarIsInitializedOp_316"
  op: "VarIsInitializedOp"
  input: "bnorm_64/moving_mean"
}
node {
  name: "VarIsInitializedOp_317"
  op: "VarIsInitializedOp"
  input: "bnorm_66/moving_mean"
}
node {
  name: "VarIsInitializedOp_318"
  op: "VarIsInitializedOp"
  input: "bnorm_75/beta"
}
node {
  name: "VarIsInitializedOp_319"
  op: "VarIsInitializedOp"
  input: "bnorm_79/moving_mean"
}
node {
  name: "VarIsInitializedOp_320"
  op: "VarIsInitializedOp"
  input: "conv_99/kernel"
}
node {
  name: "VarIsInitializedOp_321"
  op: "VarIsInitializedOp"
  input: "bnorm_103/moving_mean"
}
node {
  name: "VarIsInitializedOp_322"
  op: "VarIsInitializedOp"
  input: "bnorm_80/moving_mean"
}
node {
  name: "VarIsInitializedOp_323"
  op: "VarIsInitializedOp"
  input: "conv_93/bias"
}
node {
  name: "VarIsInitializedOp_324"
  op: "VarIsInitializedOp"
  input: "bnorm_72/gamma"
}
node {
  name: "VarIsInitializedOp_325"
  op: "VarIsInitializedOp"
  input: "bnorm_39/moving_mean"
}
node {
  name: "VarIsInitializedOp_326"
  op: "VarIsInitializedOp"
  input: "bnorm_57/beta"
}
node {
  name: "VarIsInitializedOp_327"
  op: "VarIsInitializedOp"
  input: "bnorm_102/moving_mean"
}
node {
  name: "VarIsInitializedOp_328"
  op: "VarIsInitializedOp"
  input: "conv_7/kernel"
}
node {
  name: "VarIsInitializedOp_329"
  op: "VarIsInitializedOp"
  input: "bnorm_29/moving_mean"
}
node {
  name: "VarIsInitializedOp_330"
  op: "VarIsInitializedOp"
  input: "bnorm_39/gamma"
}
node {
  name: "VarIsInitializedOp_331"
  op: "VarIsInitializedOp"
  input: "bnorm_45/beta"
}
node {
  name: "VarIsInitializedOp_332"
  op: "VarIsInitializedOp"
  input: "bnorm_53/moving_mean"
}
node {
  name: "VarIsInitializedOp_333"
  op: "VarIsInitializedOp"
  input: "bnorm_79/beta"
}
node {
  name: "VarIsInitializedOp_334"
  op: "VarIsInitializedOp"
  input: "bnorm_90/moving_mean"
}
node {
  name: "VarIsInitializedOp_335"
  op: "VarIsInitializedOp"
  input: "bnorm_101/moving_variance"
}
node {
  name: "VarIsInitializedOp_336"
  op: "VarIsInitializedOp"
  input: "conv_104/kernel"
}
node {
  name: "VarIsInitializedOp_337"
  op: "VarIsInitializedOp"
  input: "bnorm_80/moving_variance"
}
node {
  name: "VarIsInitializedOp_338"
  op: "VarIsInitializedOp"
  input: "bnorm_75/gamma"
}
node {
  name: "VarIsInitializedOp_339"
  op: "VarIsInitializedOp"
  input: "bnorm_13/beta"
}
node {
  name: "VarIsInitializedOp_340"
  op: "VarIsInitializedOp"
  input: "bnorm_14/gamma"
}
node {
  name: "VarIsInitializedOp_341"
  op: "VarIsInitializedOp"
  input: "bnorm_28/beta"
}
node {
  name: "VarIsInitializedOp_342"
  op: "VarIsInitializedOp"
  input: "bnorm_35/moving_mean"
}
node {
  name: "VarIsInitializedOp_343"
  op: "VarIsInitializedOp"
  input: "bnorm_44/moving_variance"
}
node {
  name: "VarIsInitializedOp_344"
  op: "VarIsInitializedOp"
  input: "bnorm_45/moving_mean"
}
node {
  name: "VarIsInitializedOp_345"
  op: "VarIsInitializedOp"
  input: "conv_50/kernel"
}
node {
  name: "VarIsInitializedOp_346"
  op: "VarIsInitializedOp"
  input: "bnorm_54/beta"
}
node {
  name: "VarIsInitializedOp_347"
  op: "VarIsInitializedOp"
  input: "bnorm_67/beta"
}
node {
  name: "VarIsInitializedOp_348"
  op: "VarIsInitializedOp"
  input: "bnorm_84/moving_variance"
}
node {
  name: "VarIsInitializedOp_349"
  op: "VarIsInitializedOp"
  input: "bnorm_1/moving_variance"
}
node {
  name: "VarIsInitializedOp_350"
  op: "VarIsInitializedOp"
  input: "bnorm_23/beta"
}
node {
  name: "VarIsInitializedOp_351"
  op: "VarIsInitializedOp"
  input: "bnorm_35/beta"
}
node {
  name: "VarIsInitializedOp_352"
  op: "VarIsInitializedOp"
  input: "bnorm_44/moving_mean"
}
node {
  name: "VarIsInitializedOp_353"
  op: "VarIsInitializedOp"
  input: "bnorm_50/beta"
}
node {
  name: "VarIsInitializedOp_354"
  op: "VarIsInitializedOp"
  input: "bnorm_63/beta"
}
node {
  name: "VarIsInitializedOp_355"
  op: "VarIsInitializedOp"
  input: "bnorm_66/beta"
}
node {
  name: "VarIsInitializedOp_356"
  op: "VarIsInitializedOp"
  input: "bnorm_70/moving_variance"
}
node {
  name: "VarIsInitializedOp_357"
  op: "VarIsInitializedOp"
  input: "conv_87/kernel"
}
node {
  name: "VarIsInitializedOp_358"
  op: "VarIsInitializedOp"
  input: "conv_90/kernel"
}
node {
  name: "VarIsInitializedOp_359"
  op: "VarIsInitializedOp"
  input: "bnorm_104/moving_variance"
}
node {
  name: "VarIsInitializedOp_360"
  op: "VarIsInitializedOp"
  input: "bnorm_100/gamma"
}
node {
  name: "init"
  op: "NoOp"
  input: "^bnorm_1/beta/Assign"
  input: "^bnorm_1/gamma/Assign"
  input: "^bnorm_1/moving_mean/Assign"
  input: "^bnorm_1/moving_variance/Assign"
  input: "^bnorm_10/beta/Assign"
  input: "^bnorm_10/gamma/Assign"
  input: "^bnorm_10/moving_mean/Assign"
  input: "^bnorm_10/moving_variance/Assign"
  input: "^bnorm_100/beta/Assign"
  input: "^bnorm_100/gamma/Assign"
  input: "^bnorm_100/moving_mean/Assign"
  input: "^bnorm_100/moving_variance/Assign"
  input: "^bnorm_101/beta/Assign"
  input: "^bnorm_101/gamma/Assign"
  input: "^bnorm_101/moving_mean/Assign"
  input: "^bnorm_101/moving_variance/Assign"
  input: "^bnorm_102/beta/Assign"
  input: "^bnorm_102/gamma/Assign"
  input: "^bnorm_102/moving_mean/Assign"
  input: "^bnorm_102/moving_variance/Assign"
  input: "^bnorm_103/beta/Assign"
  input: "^bnorm_103/gamma/Assign"
  input: "^bnorm_103/moving_mean/Assign"
  input: "^bnorm_103/moving_variance/Assign"
  input: "^bnorm_104/beta/Assign"
  input: "^bnorm_104/gamma/Assign"
  input: "^bnorm_104/moving_mean/Assign"
  input: "^bnorm_104/moving_variance/Assign"
  input: "^bnorm_12/beta/Assign"
  input: "^bnorm_12/gamma/Assign"
  input: "^bnorm_12/moving_mean/Assign"
  input: "^bnorm_12/moving_variance/Assign"
  input: "^bnorm_13/beta/Assign"
  input: "^bnorm_13/gamma/Assign"
  input: "^bnorm_13/moving_mean/Assign"
  input: "^bnorm_13/moving_variance/Assign"
  input: "^bnorm_14/beta/Assign"
  input: "^bnorm_14/gamma/Assign"
  input: "^bnorm_14/moving_mean/Assign"
  input: "^bnorm_14/moving_variance/Assign"
  input: "^bnorm_16/beta/Assign"
  input: "^bnorm_16/gamma/Assign"
  input: "^bnorm_16/moving_mean/Assign"
  input: "^bnorm_16/moving_variance/Assign"
  input: "^bnorm_17/beta/Assign"
  input: "^bnorm_17/gamma/Assign"
  input: "^bnorm_17/moving_mean/Assign"
  input: "^bnorm_17/moving_variance/Assign"
  input: "^bnorm_19/beta/Assign"
  input: "^bnorm_19/gamma/Assign"
  input: "^bnorm_19/moving_mean/Assign"
  input: "^bnorm_19/moving_variance/Assign"
  input: "^bnorm_2/beta/Assign"
  input: "^bnorm_2/gamma/Assign"
  input: "^bnorm_2/moving_mean/Assign"
  input: "^bnorm_2/moving_variance/Assign"
  input: "^bnorm_20/beta/Assign"
  input: "^bnorm_20/gamma/Assign"
  input: "^bnorm_20/moving_mean/Assign"
  input: "^bnorm_20/moving_variance/Assign"
  input: "^bnorm_22/beta/Assign"
  input: "^bnorm_22/gamma/Assign"
  input: "^bnorm_22/moving_mean/Assign"
  input: "^bnorm_22/moving_variance/Assign"
  input: "^bnorm_23/beta/Assign"
  input: "^bnorm_23/gamma/Assign"
  input: "^bnorm_23/moving_mean/Assign"
  input: "^bnorm_23/moving_variance/Assign"
  input: "^bnorm_25/beta/Assign"
  input: "^bnorm_25/gamma/Assign"
  input: "^bnorm_25/moving_mean/Assign"
  input: "^bnorm_25/moving_variance/Assign"
  input: "^bnorm_26/beta/Assign"
  input: "^bnorm_26/gamma/Assign"
  input: "^bnorm_26/moving_mean/Assign"
  input: "^bnorm_26/moving_variance/Assign"
  input: "^bnorm_28/beta/Assign"
  input: "^bnorm_28/gamma/Assign"
  input: "^bnorm_28/moving_mean/Assign"
  input: "^bnorm_28/moving_variance/Assign"
  input: "^bnorm_29/beta/Assign"
  input: "^bnorm_29/gamma/Assign"
  input: "^bnorm_29/moving_mean/Assign"
  input: "^bnorm_29/moving_variance/Assign"
  input: "^bnorm_3/beta/Assign"
  input: "^bnorm_3/gamma/Assign"
  input: "^bnorm_3/moving_mean/Assign"
  input: "^bnorm_3/moving_variance/Assign"
  input: "^bnorm_31/beta/Assign"
  input: "^bnorm_31/gamma/Assign"
  input: "^bnorm_31/moving_mean/Assign"
  input: "^bnorm_31/moving_variance/Assign"
  input: "^bnorm_32/beta/Assign"
  input: "^bnorm_32/gamma/Assign"
  input: "^bnorm_32/moving_mean/Assign"
  input: "^bnorm_32/moving_variance/Assign"
  input: "^bnorm_34/beta/Assign"
  input: "^bnorm_34/gamma/Assign"
  input: "^bnorm_34/moving_mean/Assign"
  input: "^bnorm_34/moving_variance/Assign"
  input: "^bnorm_35/beta/Assign"
  input: "^bnorm_35/gamma/Assign"
  input: "^bnorm_35/moving_mean/Assign"
  input: "^bnorm_35/moving_variance/Assign"
  input: "^bnorm_37/beta/Assign"
  input: "^bnorm_37/gamma/Assign"
  input: "^bnorm_37/moving_mean/Assign"
  input: "^bnorm_37/moving_variance/Assign"
  input: "^bnorm_38/beta/Assign"
  input: "^bnorm_38/gamma/Assign"
  input: "^bnorm_38/moving_mean/Assign"
  input: "^bnorm_38/moving_variance/Assign"
  input: "^bnorm_39/beta/Assign"
  input: "^bnorm_39/gamma/Assign"
  input: "^bnorm_39/moving_mean/Assign"
  input: "^bnorm_39/moving_variance/Assign"
  input: "^bnorm_41/beta/Assign"
  input: "^bnorm_41/gamma/Assign"
  input: "^bnorm_41/moving_mean/Assign"
  input: "^bnorm_41/moving_variance/Assign"
  input: "^bnorm_42/beta/Assign"
  input: "^bnorm_42/gamma/Assign"
  input: "^bnorm_42/moving_mean/Assign"
  input: "^bnorm_42/moving_variance/Assign"
  input: "^bnorm_44/beta/Assign"
  input: "^bnorm_44/gamma/Assign"
  input: "^bnorm_44/moving_mean/Assign"
  input: "^bnorm_44/moving_variance/Assign"
  input: "^bnorm_45/beta/Assign"
  input: "^bnorm_45/gamma/Assign"
  input: "^bnorm_45/moving_mean/Assign"
  input: "^bnorm_45/moving_variance/Assign"
  input: "^bnorm_47/beta/Assign"
  input: "^bnorm_47/gamma/Assign"
  input: "^bnorm_47/moving_mean/Assign"
  input: "^bnorm_47/moving_variance/Assign"
  input: "^bnorm_48/beta/Assign"
  input: "^bnorm_48/gamma/Assign"
  input: "^bnorm_48/moving_mean/Assign"
  input: "^bnorm_48/moving_variance/Assign"
  input: "^bnorm_5/beta/Assign"
  input: "^bnorm_5/gamma/Assign"
  input: "^bnorm_5/moving_mean/Assign"
  input: "^bnorm_5/moving_variance/Assign"
  input: "^bnorm_50/beta/Assign"
  input: "^bnorm_50/gamma/Assign"
  input: "^bnorm_50/moving_mean/Assign"
  input: "^bnorm_50/moving_variance/Assign"
  input: "^bnorm_51/beta/Assign"
  input: "^bnorm_51/gamma/Assign"
  input: "^bnorm_51/moving_mean/Assign"
  input: "^bnorm_51/moving_variance/Assign"
  input: "^bnorm_53/beta/Assign"
  input: "^bnorm_53/gamma/Assign"
  input: "^bnorm_53/moving_mean/Assign"
  input: "^bnorm_53/moving_variance/Assign"
  input: "^bnorm_54/beta/Assign"
  input: "^bnorm_54/gamma/Assign"
  input: "^bnorm_54/moving_mean/Assign"
  input: "^bnorm_54/moving_variance/Assign"
  input: "^bnorm_56/beta/Assign"
  input: "^bnorm_56/gamma/Assign"
  input: "^bnorm_56/moving_mean/Assign"
  input: "^bnorm_56/moving_variance/Assign"
  input: "^bnorm_57/beta/Assign"
  input: "^bnorm_57/gamma/Assign"
  input: "^bnorm_57/moving_mean/Assign"
  input: "^bnorm_57/moving_variance/Assign"
  input: "^bnorm_59/beta/Assign"
  input: "^bnorm_59/gamma/Assign"
  input: "^bnorm_59/moving_mean/Assign"
  input: "^bnorm_59/moving_variance/Assign"
  input: "^bnorm_6/beta/Assign"
  input: "^bnorm_6/gamma/Assign"
  input: "^bnorm_6/moving_mean/Assign"
  input: "^bnorm_6/moving_variance/Assign"
  input: "^bnorm_60/beta/Assign"
  input: "^bnorm_60/gamma/Assign"
  input: "^bnorm_60/moving_mean/Assign"
  input: "^bnorm_60/moving_variance/Assign"
  input: "^bnorm_62/beta/Assign"
  input: "^bnorm_62/gamma/Assign"
  input: "^bnorm_62/moving_mean/Assign"
  input: "^bnorm_62/moving_variance/Assign"
  input: "^bnorm_63/beta/Assign"
  input: "^bnorm_63/gamma/Assign"
  input: "^bnorm_63/moving_mean/Assign"
  input: "^bnorm_63/moving_variance/Assign"
  input: "^bnorm_64/beta/Assign"
  input: "^bnorm_64/gamma/Assign"
  input: "^bnorm_64/moving_mean/Assign"
  input: "^bnorm_64/moving_variance/Assign"
  input: "^bnorm_66/beta/Assign"
  input: "^bnorm_66/gamma/Assign"
  input: "^bnorm_66/moving_mean/Assign"
  input: "^bnorm_66/moving_variance/Assign"
  input: "^bnorm_67/beta/Assign"
  input: "^bnorm_67/gamma/Assign"
  input: "^bnorm_67/moving_mean/Assign"
  input: "^bnorm_67/moving_variance/Assign"
  input: "^bnorm_69/beta/Assign"
  input: "^bnorm_69/gamma/Assign"
  input: "^bnorm_69/moving_mean/Assign"
  input: "^bnorm_69/moving_variance/Assign"
  input: "^bnorm_7/beta/Assign"
  input: "^bnorm_7/gamma/Assign"
  input: "^bnorm_7/moving_mean/Assign"
  input: "^bnorm_7/moving_variance/Assign"
  input: "^bnorm_70/beta/Assign"
  input: "^bnorm_70/gamma/Assign"
  input: "^bnorm_70/moving_mean/Assign"
  input: "^bnorm_70/moving_variance/Assign"
  input: "^bnorm_72/beta/Assign"
  input: "^bnorm_72/gamma/Assign"
  input: "^bnorm_72/moving_mean/Assign"
  input: "^bnorm_72/moving_variance/Assign"
  input: "^bnorm_73/beta/Assign"
  input: "^bnorm_73/gamma/Assign"
  input: "^bnorm_73/moving_mean/Assign"
  input: "^bnorm_73/moving_variance/Assign"
  input: "^bnorm_75/beta/Assign"
  input: "^bnorm_75/gamma/Assign"
  input: "^bnorm_75/moving_mean/Assign"
  input: "^bnorm_75/moving_variance/Assign"
  input: "^bnorm_76/beta/Assign"
  input: "^bnorm_76/gamma/Assign"
  input: "^bnorm_76/moving_mean/Assign"
  input: "^bnorm_76/moving_variance/Assign"
  input: "^bnorm_77/beta/Assign"
  input: "^bnorm_77/gamma/Assign"
  input: "^bnorm_77/moving_mean/Assign"
  input: "^bnorm_77/moving_variance/Assign"
  input: "^bnorm_78/beta/Assign"
  input: "^bnorm_78/gamma/Assign"
  input: "^bnorm_78/moving_mean/Assign"
  input: "^bnorm_78/moving_variance/Assign"
  input: "^bnorm_79/beta/Assign"
  input: "^bnorm_79/gamma/Assign"
  input: "^bnorm_79/moving_mean/Assign"
  input: "^bnorm_79/moving_variance/Assign"
  input: "^bnorm_80/beta/Assign"
  input: "^bnorm_80/gamma/Assign"
  input: "^bnorm_80/moving_mean/Assign"
  input: "^bnorm_80/moving_variance/Assign"
  input: "^bnorm_84/beta/Assign"
  input: "^bnorm_84/gamma/Assign"
  input: "^bnorm_84/moving_mean/Assign"
  input: "^bnorm_84/moving_variance/Assign"
  input: "^bnorm_87/beta/Assign"
  input: "^bnorm_87/gamma/Assign"
  input: "^bnorm_87/moving_mean/Assign"
  input: "^bnorm_87/moving_variance/Assign"
  input: "^bnorm_88/beta/Assign"
  input: "^bnorm_88/gamma/Assign"
  input: "^bnorm_88/moving_mean/Assign"
  input: "^bnorm_88/moving_variance/Assign"
  input: "^bnorm_89/beta/Assign"
  input: "^bnorm_89/gamma/Assign"
  input: "^bnorm_89/moving_mean/Assign"
  input: "^bnorm_89/moving_variance/Assign"
  input: "^bnorm_9/beta/Assign"
  input: "^bnorm_9/gamma/Assign"
  input: "^bnorm_9/moving_mean/Assign"
  input: "^bnorm_9/moving_variance/Assign"
  input: "^bnorm_90/beta/Assign"
  input: "^bnorm_90/gamma/Assign"
  input: "^bnorm_90/moving_mean/Assign"
  input: "^bnorm_90/moving_variance/Assign"
  input: "^bnorm_91/beta/Assign"
  input: "^bnorm_91/gamma/Assign"
  input: "^bnorm_91/moving_mean/Assign"
  input: "^bnorm_91/moving_variance/Assign"
  input: "^bnorm_92/beta/Assign"
  input: "^bnorm_92/gamma/Assign"
  input: "^bnorm_92/moving_mean/Assign"
  input: "^bnorm_92/moving_variance/Assign"
  input: "^bnorm_96/beta/Assign"
  input: "^bnorm_96/gamma/Assign"
  input: "^bnorm_96/moving_mean/Assign"
  input: "^bnorm_96/moving_variance/Assign"
  input: "^bnorm_99/beta/Assign"
  input: "^bnorm_99/gamma/Assign"
  input: "^bnorm_99/moving_mean/Assign"
  input: "^bnorm_99/moving_variance/Assign"
  input: "^conv_1/kernel/Assign"
  input: "^conv_10/kernel/Assign"
  input: "^conv_100/kernel/Assign"
  input: "^conv_101/kernel/Assign"
  input: "^conv_102/kernel/Assign"
  input: "^conv_103/kernel/Assign"
  input: "^conv_104/kernel/Assign"
  input: "^conv_105/bias/Assign"
  input: "^conv_105/kernel/Assign"
  input: "^conv_12/kernel/Assign"
  input: "^conv_13/kernel/Assign"
  input: "^conv_14/kernel/Assign"
  input: "^conv_16/kernel/Assign"
  input: "^conv_17/kernel/Assign"
  input: "^conv_19/kernel/Assign"
  input: "^conv_2/kernel/Assign"
  input: "^conv_20/kernel/Assign"
  input: "^conv_22/kernel/Assign"
  input: "^conv_23/kernel/Assign"
  input: "^conv_25/kernel/Assign"
  input: "^conv_26/kernel/Assign"
  input: "^conv_28/kernel/Assign"
  input: "^conv_29/kernel/Assign"
  input: "^conv_3/kernel/Assign"
  input: "^conv_31/kernel/Assign"
  input: "^conv_32/kernel/Assign"
  input: "^conv_34/kernel/Assign"
  input: "^conv_35/kernel/Assign"
  input: "^conv_37/kernel/Assign"
  input: "^conv_38/kernel/Assign"
  input: "^conv_39/kernel/Assign"
  input: "^conv_41/kernel/Assign"
  input: "^conv_42/kernel/Assign"
  input: "^conv_44/kernel/Assign"
  input: "^conv_45/kernel/Assign"
  input: "^conv_47/kernel/Assign"
  input: "^conv_48/kernel/Assign"
  input: "^conv_5/kernel/Assign"
  input: "^conv_50/kernel/Assign"
  input: "^conv_51/kernel/Assign"
  input: "^conv_53/kernel/Assign"
  input: "^conv_54/kernel/Assign"
  input: "^conv_56/kernel/Assign"
  input: "^conv_57/kernel/Assign"
  input: "^conv_59/kernel/Assign"
  input: "^conv_6/kernel/Assign"
  input: "^conv_60/kernel/Assign"
  input: "^conv_62/kernel/Assign"
  input: "^conv_63/kernel/Assign"
  input: "^conv_64/kernel/Assign"
  input: "^conv_66/kernel/Assign"
  input: "^conv_67/kernel/Assign"
  input: "^conv_69/kernel/Assign"
  input: "^conv_7/kernel/Assign"
  input: "^conv_70/kernel/Assign"
  input: "^conv_72/kernel/Assign"
  input: "^conv_73/kernel/Assign"
  input: "^conv_75/kernel/Assign"
  input: "^conv_76/kernel/Assign"
  input: "^conv_77/kernel/Assign"
  input: "^conv_78/kernel/Assign"
  input: "^conv_79/kernel/Assign"
  input: "^conv_80/kernel/Assign"
  input: "^conv_81/bias/Assign"
  input: "^conv_81/kernel/Assign"
  input: "^conv_84/kernel/Assign"
  input: "^conv_87/kernel/Assign"
  input: "^conv_88/kernel/Assign"
  input: "^conv_89/kernel/Assign"
  input: "^conv_9/kernel/Assign"
  input: "^conv_90/kernel/Assign"
  input: "^conv_91/kernel/Assign"
  input: "^conv_92/kernel/Assign"
  input: "^conv_93/bias/Assign"
  input: "^conv_93/kernel/Assign"
  input: "^conv_96/kernel/Assign"
  input: "^conv_99/kernel/Assign"
}
versions {
  producer: 134
}
